model/discriminator_39.pth (torch, 557154 bytes, 5 tensors)

model.0.weight f4 [64, 1, 4, 4]
00000000: 7eeb 8c3e be3b 30be 2f54 41be 1a13 433e
00000010: 637c 923e d74f 41be 4b33 6abe 2020 1abd
00000020: 7270 bc3e 1c4b 033e f5bd 6fbe fdea 2d3d
00000030: c547 59bd a72b 343e e367 18be bb28 203d
00000040: 4608 7abd 899a 253e 5707 cd3d 357f ed3d
00000050: 695c 1c3d 5650 0abe 3a3d 223d b037 37be
00000060: f82e b73d ae01 0dbe 6607 ea3d fc2d c9bd
00000070: f48d 3abe 6521 77be 26af 793e 5b13 8bbe
00000080: ff0b 09be 326f 8b38 3e56 5a3d d276 023e
00000090: 311b f8bd 777d 83be 9090 563e 3f15 9c3d
000000a0: 98bf a8bd d1eb 1dbe 7d4a c93d 09db 753e
000000b0: f251 113e 891a 36bd dfa8 e0bd 8baf c1bc
000000c0: ece5 0dbe c290 8e3e 5bab 83bd 6d12 9c3e
000000d0: 3a79 673e ace4 2e3e 14a0 d13d 2016 6b3e
000000e0: c2c3 89be 99f9 29be b53f 1bbe e8a9 13be
000000f0: 1bde 96bd f552 0ebe e559 2dbe 8422 febc
00000100: 5a32 61be 5ead 03bd d28e 21be 7419 67bd
00000110: 33c0 23be 6b1c a5bd cd55 70bd 55cc 2d3e
00000120: 6e69 1abe 4d72 35be 9216 2e3e 6b2f 36be
00000130: 3a09 bc3d d17a 2cbe a77b f5bd 5eab 113e
00000140: eb53 79be 8caf dbbd e2a6 21be 6e11 62bd
00000150: 418a c5bd 68de 28be b879 b3be 17db 9ebe
00000160: 514c 6cbe 0b7f 3d3e 303b 473d 56e0 1d3d
00000170: 7bb1 b83e 7b87 ba3e 0408 9f3e 5a37 4a3e
00000180: 0a3a 23be 6683 b5bd 4045 5abe a7f4 1b3d
00000190: 5655 893e d534 3d3e 4fb7 3d3e 5ddb 3abe
000001a0: 5074 80be acd4 8abe ed4d 163e 7dab 033e
000001b0: 2ca3 4c3e b9d0 08be b082 09be 39b2 3abd
000001c0: 00e1 ecbd e392 613e 2959 22be 14d2 de3c
000001d0: f2ba 353e 6aaa 32be 8880 a3bd 855e dc3d
000001e0: 53f4 91bd 0f14 54be 45d3 c7be ae68 823e
000001f0: 0eee 343e 6ec6 22bd 2681 c9bd 9389 853e
00000200: 9d23 73bd 4dd7 d0bd 094e 1fbe a5b0 1dbe
00000210: f5d3 0f3e 172c cbbc d6e6 bd3a 91ec 77be
00000220: e305 3f3e 0535 5b3e 040c fc3d c87a 233e
00000230: 6d4a d0bd 0f82 933e 1d63 d4bd 7f0b 263e
00000240: f048 453b be8c 0c3d 7bea 933e 5006 ca3d
00000250: 2466 7dbe 40b0 5dbe a9fc db3d d81a 7b3e
00000260: bb9a 15be 7907 7abe ced1 2abe 5852 8a3e
00000270: eac0 b2bd e281 afbe 2a2a 6f3e 9666 c93d
00000280: 5f98 ce3d e4a3 733e ee16 66be 3ed4 fb3d
00000290: dde8 04bb bfb0 4d3e b06b aebd c17e 26bc
000002a0: 26c6 b5bd 06da 1ebe 9dab 173e dc85 35be
000002b0: f10e 46be 8c3d 943c ef2f 7f3d 3181 da3c
000002c0: 90cb 783e f76d 0fbe 91ae 083d d12b debd
000002d0: dc68 69be 1829 353c 92d1 00be c26b 9fbd
000002e0: 9061 293e 6910 903d b960 dfbd d229 1bbd
000002f0: 0fee 58be c921 0abd 46df 0a3e f168 3f3e
00000300: 40ab 18be 9fde 4d3d 7a35 00be 3bef 89bb
00000310: 5b07 a9bd f349 6fbe 1107 04be 15b9 593b
00000320: 6292 963e 4128 19bd 369f bb3d e246 2b3e
00000330: efc6 e93d 0d29 1d3e 280b 9b3e 374d c9be
00000340: 8e4f 3dbb 5721 61be a62b 15be 2ac1 9a3d
00000350: 2cb6 0a3d 1e47 893d 49b9 853e d6bb 613c
00000360: 2228 eb3d db70 213e 69ce a53e 7fb8 bfbc
00000370: 697b d5bd cd88 0abe 45bf aebe 325a 3f3e
00000380: 246b 44be a726 0d3c 4921 313e 2778 2f3d
00000390: 6983 56bd 956f 313e 00c5 133f ef32 9b3d
000003a0: dd56 303e 515d c33e 8c05 2e3f e5a7 c23e
000003b0: 611b d03d 0cf4 a13e 9637 bb3e bcce b7bd
000003c0: b653 1e3d 531a 3bbd e445 83be a8d2 b73d
000003d0: 929b febd b5c3 aebd c2ba febd 3e03 e7bd
000003e0: 8c07 c2bd c76f 12be 634c 0cba 434b 8c3d
000003f0: 0e5a 91bb b2a1 b2bd 637d 5b3e f322 573e
0.27523416 -0.1721029 -0.1887977 0.19050255 0.28610525 -0.18878113 -0.22871129 -0.037628293
0.3680454 0.1282162 -0.23412307 0.04246043 -0.05304696 0.17594777 -0.1488338 0.039101344
-0.061043046 0.16172232 0.100111656 0.115965284 0.038174067 -0.13507208 0.03960917 -0.17892337
0.089445055 -0.13770172 0.114271924 -0.09823224 -0.18218213 -0.24133833 0.2438322 -0.27163205
-0.13383482 6.648748e-05 0.053304903 0.12740639 -0.12114561 -0.2568166 0.20953584 0.0762124
-0.082396686 -0.15421988 0.09828661 0.24009337 0.14191416 -0.0444589 -0.109697096 -0.023643276
-0.1385724 0.27844816 -0.06429168 0.30482808 0.22604838 0.17079419 0.102356106 0.22957659
-0.26907164 -0.1659912 -0.15161021 -0.14420283 -0.07366582 -0.13898833 -0.16928823 -0.031022318
-0.21991864 -0.032147758 -0.15777138 -0.05642076 -0.15991287 -0.08062061 -0.058675576 0.16972478
-0.1507928 -0.17719384 0.17000797 -0.17791526 0.09181447 -0.16843726 -0.119864754 0.14225528
-0.24348418 -0.10726842 -0.15786317 -0.055192403 -0.096455105 -0.16491091 -0.35053802 -0.31026527
-0.23075987 0.18505494 0.04864043 0.03854402 0.36072907 0.36431488 0.31060803 0.19747677
-0.15940109 -0.08862953 -0.2131548 0.038075116 0.2682292 0.18477185 0.18526958 -0.18247743
-0.2508874 -0.2711538 0.14678164 0.12858386 0.1998412 -0.13360871 -0.1342876 -0.045580123
-0.11566353 0.22028689 -0.15854324 0.027199782 0.17747095 -0.1744782 -0.079835 0.10760216
-0.07126679 -0.20710777 -0.39028373 0.2547049 0.17668936 -0.03974002 -0.09839086 0.26081523
-0.059360135 -0.10197315 -0.15557112 -0.15399416 0.14045699 -0.024801297 0.001448835 -0.24211337
0.1865459 0.21406944 0.12306979 0.15964806 -0.101704456 0.28810164 -0.10370467 0.16215323
0.0030103289 0.03431391 0.28889832 0.09864485 -0.24745995 -0.21649265 0.107415505 0.24521959
-0.14609806 -0.24416913 -0.16681597 0.27015948 -0.08728202 -0.3427878 0.23355928 0.0983402
0.10087656 0.23792988 -0.22469684 0.12296341 -0.00202804 0.20086955 -0.085166335 -0.010162056
-0.088756844 -0.15512857 0.14811559 -0.17726845 -0.19341637 0.018095754 0.062301572 0.026672931
0.24296403 -0.14006792 0.033369604 -0.10848201 -0.22793907 0.011057161 -0.12579945 -0.07784225
0.16541123 0.0703438 -0.1090712 -0.03788168 -0.21184562 -0.033723626 0.13561735 0.18692376
-0.14909077 0.050261136 -0.125204 -0.0042094267 -0.08253356 -0.23368053 -0.1289332 0.003322189
0.29408556 -0.037391905 0.091612265 0.16726258 0.11414897 0.15347691 0.3028195 -0.39316723
-0.002888653 -0.21985374 -0.14567432 0.07556374 0.03386514 0.06703018 0.26117924 0.013777694
0.11482264 0.15765707 0.3238404 -0.023403404 -0.10423929 -0.13528748 -0.34130302 0.1868675
-0.19181496 0.0086151725 0.17297854 0.042839196 -0.052371416 0.17327721 0.57722473 0.07578074
0.17220636 0.38157132 0.67977214 0.38018718 0.10161472 0.31631505 0.36565846 -0.08974978
0.03865405 -0.0456794 -0.2563926 0.08975726 -0.124320164 -0.08533422 -0.12437965 -0.11279915
-0.09474096 -0.14300452 -0.00053519587 0.068502925 -0.004435784 -0.08722247 0.2143455 0.21009426

model.0.bias f4 [64]
00000000: aec9 89be 0123 d63d f437 a43d 3ddb 12bd
00000010: e2e8 73be 4b1b 70be 41b0 dcbd 86d4 1dbe
00000020: 53c0 623e 77f9 69bd c801 a03d 229e 633e
00000030: ee91 10be 0618 27be 30b9 9f3c d2ec d9bd
00000040: ff9f 6abe 0e59 95bd ab79 983d e907 193e
00000050: 2622 a23d 19c7 60bd d475 ba3d 84c4 4abe
00000060: 198e 343d 7ab9 d0bd 4b83 9fb9 5649 7dbe
00000070: b415 8e3c 2426 c6bd 991a 653e cc51 aabd
00000080: b386 5fbe b4d0 333e 6f0c 323e 4ae0 9fbd
00000090: b685 223e 90e4 8fbe b9fa ee3d f23b 923c
000000a0: 6a93 76be 909b 41be 2904 59bd 2d2b 45be
000000b0: 6cfd a5be 2ab7 b4b9 e057 583e 853c 68bd
000000c0: c97e 89bc e4be 973d c9ec 28be 2460 cdbd
000000d0: 7992 98be eaad 3bbe 94fc ddbc 61c3 aabd
000000e0: 7fe2 e03d ecbe 8fbe 9982 0dbe 11d9 3437
000000f0: 6f00 03be 91a8 e43d d01d 543e 3cdd 03be
-0.26911682 0.10455895 0.08018485 -0.035853613 -0.23819306 -0.23447911 -0.10775805 -0.15413103
0.22143678 -0.057122674 0.0781284 0.22228292 -0.14118168 -0.16317758 0.019497484 -0.10640873
-0.22912596 -0.072923765 0.07445081 0.14944424 0.079166695 -0.054877374 0.09104505 -0.19801527
0.044080827 -0.10191627 -0.00030424664 -0.24735007 0.017344333 -0.096752435 0.22373427 -0.08316383
-0.21828727 0.17560083 0.17387556 -0.078064516 0.15871319 -0.28104067 0.11668915 0.01785085
-0.24079672 -0.18906999 -0.052982483 -0.19254752 -0.32419908 -0.00034468743 0.21127272 -0.05669834
-0.016784089 0.07409456 -0.16496576 -0.10028103 -0.2979925 -0.18328062 -0.027097978 -0.08338047
0.10980701 -0.2807535 -0.1381935 1.0779376e-05 -0.12793134 0.11164964 0.20714498 -0.12877363

model.2.weight f4 [128, 64, 4, 4]
00000000: 889d 4e3e 320f c63d 6aa2 de3c 87a8 8dba
00000010: 974f 663e a3ca 7a3d cd1a aa3d 7809 023e
00000020: 3696 7b3e 1b63 26bd c870 e03d 0b9c 273e
00000030: b131 233e c5c1 323d bc23 91bd 00ce 463d
00000040: 19d9 91bd cbf0 cfbc 1889 36bd 8ae8 91bd
00000050: d998 a4bd c143 17bd b6a6 6cbd ed8e 97bc
00000060: 2f67 8bbc d321 83bd b95d d8bb 97c3 75bd
00000070: 3f1b 0ebc 972e 09bc 151c 4fbd 0dfb 9fbc
00000080: 1558 3fbd 6bf0 dfbc 8678 8e3a 66fd aebc
00000090: dbe7 81bd e923 8fbd 591c c5bb a1cb 6abc
000000a0: 9d83 e83c dff6 09bd 977a ddbc 1ef9 063c
000000b0: 4431 41bc 82ed 133c e508 513c 9bcf 453d
000000c0: c8c4 1d3d 4092 14bd ac54 39bd b5c7 56bc
000000d0: 4b8a ca3c 4537 ddbc 907b 5cbd 2456 a0bd
000000e0: 3176 e73c 19e5 d2bc 1838 86bc 2e5c 6f3d
000000f0: 6852 f3bc 4452 1dbd 9e52 69bc 88ac 2ebd
00000100: 121e cc3c 4f47 073d 139b 96bc 9c14 b83c
00000110: ef5b 4e3d 8f3d 88bb caa0 7f3c ccf5 083d
00000120: 12ce f7ba 2749 283d b2e4 6f3d 5fff f73c
00000130: 05dd 453d 667c 803d bbc1 443d 08a0 50bc
00000140: 6864 a33d 98fe cf3d b37b dd3d 1a40 043d
00000150: 20ef 3a3d ff9a fbbd 4848 f7bc 5ee3 42bd
00000160: fce2 b5bc 74ed 89bd 5de3 583c fcb9 e03c
00000170: 171b 36bd 8e94 8b3c 98ba 24bc 7d9e 2abd
00000180: 302f b9bd a4f9 fbbc 50c4 2abd 7194 c8bd
00000190: 8bdf fabd 1781 e2bc 629e 17bd 8281 d7bd
000001a0: 4d73 f3bc 7869 153d 266f 58ba 6d64 c2bd
000001b0: d4ab 41bd f86f 673b 12c0 30bd bc27 88bc
000001c0: 3ad1 e4bd bf5d cebd 8079 f33c 75ba c83d
000001d0: 120b 1d3d 180f ffbd 6253 95bd 3980 203e
000001e0: b6fc 9dbc ccc4 a4bd 8486 b53b 6fff 583e
000001f0: 3639 82bd 8588 abbd b260 97bc 0a8d c6bc
00000200: bbf6 9c3b 52db c2bc 62b6 8fbd fcf3 2abd
00000210: ffef 27bd 655b 78bd 6186 9cbd 09cb dcbd
00000220: 83ca 88bd 5f50 60bc b8b6 18bd e1db e3bc
00000230: e968 d3bc 6ed8 c8bc f3b9 1cbc ba09 69bd
00000240: b129 083c f4a4 51bd 778a 733d a202 c7bc
00000250: 2663 1b3c 6845 efbd 86c2 c53c 69c7 b33d
00000260: 61b4 7c3b 3e0b 653b 05ed 163d f5e6 fc3c
00000270: 6f9a 153c 8cbf 453d d4e3 de3c 515f ea3c
00000280: 89ee 04bd 57f2 e4bb 5ccd 32bd 6a17 9cb9
00000290: 7369 e8bc 47e7 313d e141 45bd 59ee 71bd
000002a0: fdb7 b03c fe16 8cbc 3619 06bd b87c 3ebd
000002b0: 488a 6bbc b0f7 adbc e2bf 2cbd 73db e6bc
000002c0: afe0 abbc 4964 f2bb bb60 62bd 8612 c9bb
000002d0: 4ec7 74bc 0ec2 9ebb a846 aabb cd18 c8bc
000002e0: 46b2 07bd bd36 42bd 327b 8fbb 0ae6 d2ba
000002f0: 07dd f63c 753a 933c 7094 cb3b 0e29 92bb
00000300: fbe2 8b3d 16dc ea3d b339 c43d 2fb0 a53d
00000310: 8daa b73d 49f2 e4bc f76b 3f3c 0744 803c
00000320: 0a9a 603d cae4 93bb 91ff c0bc 2d45 663d
00000330: debc be3c 1a06 683d 036d bc3d 8f4f 8b3d
00000340: 3551 f43d 50ca 46bd 2a1e 783d c9a3 5cbc
00000350: 172e d63d beb6 28bc 0977 4e3d f7c7 81bd
00000360: e497 a53d 15ea 1f3e 482c 013e dc95 893d
00000370: 0100 183e d176 623d 7244 69bb 4816 733d
00000380: 0d7b f63d cb5c 163d 5474 b5ba f7d2 053d
00000390: 0d66 d03d 57b0 633d 77d7 51bd dea0 82bc
000003a0: 5556 903d e8a1 8a3d e173 90bc 9ea1 fb3c
000003b0: d814 a83d f6a8 3f3c 5a8c d63c 0f85 323e
000003c0: 59fa f8bb aa2e 9d3d 2c60 263d f52e 0ebc
000003d0: e1c1 0bbd 5c8c 06bd b023 c63b 907e 8e3c
000003e0: c77b b7b9 820a 2abd e189 053d 1136 a93c
000003f0: e37e 7f3c deb5 143c 5c34 733d 687c 853c
0.20177281 0.09670867 0.027177054 -0.0010807671 0.22491299 0.061228406 0.08305893 0.12698925
0.2456902 -0.040621858 0.10959011 0.1636812 0.15936925 0.043641824 -0.07086894 0.0485363
-0.07121486 -0.025383374 -0.044564337 -0.071244314 -0.08036966 -0.03692985 -0.057776175 -0.01850077
-0.017016975 -0.06402936 -0.0066029695 -0.060000982 -0.008673488 -0.008372924 -0.05056389 -0.01952889
-0.04671486 -0.02733632 0.0010869659 -0.021361064 -0.06343051 -0.06989271 -0.006015342 -0.0143307755
0.02838307 -0.0336827 -0.027035994 0.008238105 -0.011791531 0.009028794 0.012758468 0.04829369
0.038517743 -0.036272287 -0.045246765 -0.013109137 0.024724146 -0.027003894 -0.053828776 -0.0782893
0.0282546 -0.025744008 -0.01638417 0.05843752 -0.02970238 -0.038408533 -0.014240889 -0.042645007
0.024916682 0.03302699 -0.018384492 0.022470765 0.050380643 -0.004157729 0.0156023 0.033437535
-0.0018906018 0.04108539 0.05856771 0.030273138 0.048306484 0.06273727 0.04803632 -0.012733467
0.07978135 0.10155982 0.108146094 0.032287695 0.045638204 -0.122854225 -0.030185834 -0.047580115
-0.022202961 -0.06734744 0.013237801 0.027432434 -0.04445943 0.01703861 -0.010054253 -0.041655052
-0.090422034 -0.030758686 -0.041691124 -0.09793938 -0.12249669 -0.027649445 -0.03701628 -0.105227485
-0.029718066 0.036477536 -0.00082563085 -0.09491811 -0.04728301 0.0035314541 -0.043151923 -0.01662051
-0.11172719 -0.100764744 0.029721022 0.09801189 0.038340636 -0.12454051 -0.07291295 0.15673913
-0.019285541 -0.080453485 0.005539717 0.2119119 -0.06358568 -0.083756484 -0.018478725 -0.024237175
0.0047901548 -0.02378622 -0.07017209 -0.041736588 -0.041000362 -0.060634036 -0.07642818 -0.107809134
-0.06679251 -0.013691037 -0.03728363 -0.027814807 -0.025806861 -0.024517264 -0.009565818 -0.05689404
0.008310721 -0.051182702 0.059458222 -0.024293248 0.009484088 -0.1168316 0.024140608 0.08778269
0.0038559663 0.0034949328 0.036847133 0.030871848 0.009131058 0.048278376 0.027208246 0.028609904
-0.032454047 -0.006986897 -0.043652877 -0.00029772084 -0.028370595 0.043433454 -0.04815853 -0.059065197
0.021572107 -0.017100807 -0.032738887 -0.04650566 -0.014376231 -0.02123627 -0.04217518 -0.028180813
-0.02098116 -0.007397209 -0.05526803 -0.0061362414 -0.014940096 -0.0048449105 -0.005196411 -0.024425888
-0.033129 -0.047415484 -0.0043786997 -0.0016090285 0.03013469 0.01797221 0.0062127635 -0.0044604605
0.068304025 0.11467759 0.09581318 0.08090245 0.08968077 -0.027947562 0.011683456 0.015657438
0.054834403 -0.0045133578 -0.023559364 0.056218315 0.023283418 0.056646444 0.0920048 0.06802284
0.119295515 -0.048532784 0.06057564 -0.013466784 0.1045801 -0.010297475 0.05040649 -0.063369684
0.080856115 0.15616639 0.12614548 0.067180365 0.14843751 0.055289093 -0.0035593775 0.05934742
0.12035189 0.036709588 -0.0013843873 0.032671895 0.10175715 0.055588093 -0.051230874 -0.015945848
0.070477165 0.067691624 -0.01763338 0.030716714 0.08207101 0.011697998 0.026189972 0.1743357
-0.007598203 0.07674916 0.04061906 -0.008678188 -0.034120444 -0.0328487 0.0060467348 0.017394334
-0.000349967 -0.041513927 0.032602195 0.020655664 0.015594217 0.009076564 0.059376106 0.016294673

model.2.bias f4 [128]
00000000: def4 80bd bdeb e93c faad 8e3b 3e5f cb3c
00000010: c6b6 b23b 9fa4 1b3d 082f 7c3b 6b31 3abb
00000020: ce1c 21bd 7cfc 2c3d 984f e1bb 5c45 d93b
00000030: 8ed6 5abd dea7 49bc ee1e 94bd c13e 2bbc
00000040: 510e 153d 2741 23bd 1bc1 cbbc cd8c b13c
00000050: 82dc bbbb 0d13 51bd 97d2 efbc fa18 fb3c
00000060: c73e 62bd 9ad7 f3bc 247a a53d 318f 6f3c
00000070: fb2a 17bd 8640 8e3c e0c2 20bd bbe2 6ebc
00000080: a894 733d c3ce df3c e50c e9bb a070 d43c
00000090: 5eaa ffbc 91cc b6bc 1ba8 4cbd 6b07 2abc
000000a0: fd41 c5bd cf07 97bc 7365 00bc e4cd e6bb
000000b0: bff9 b43a 9fa3 eebc a3a9 b93b 5f43 e2bc
000000c0: 94df ad3d ab43 8cbc d584 ae3c 032d f1bb
000000d0: 1cee 673c 563a 3c3d 536a aabd 4fb1 84bd
000000e0: 6eaa 4d3c 2249 7fbd ba16 febc a2df 003c
000000f0: e6b2 603d 7e3d 3cbc 0d8e 7cbd 1063 87bd
00000100: 7568 9dbb 2ab7 44bd bfd4 163d 3279 adbc
00000110: d961 63bc c224 733b 40b0 7b3d 04c6 9b3c
00000120: 1a9a 60bc 2526 cb39 2ae8 5fbc 6ab9 45bd
00000130: 2efc 103d 60a6 d9bc c46d 253c a00f 1fbd
00000140: 0c57 b6bd e599 27bd 1d53 163d af65 523c
00000150: 8d7d acbc 2b00 85bd 2d34 24bd 0b81 533d
00000160: 2188 34bd 48a8 993d b790 573c 4ee1 603d
00000170: 3878 f73c 84ec 453c 41c9 53bd 1ef2 86bd
00000180: 765c e13c e17b 59bd c2d3 223d e4f2 6abd
00000190: 40b5 56bd e13a 02bd d017 5c3d f266 46bb
000001a0: 47d0 d53c 7074 063d 3ea1 b4bc e9ed f73c
000001b0: 0011 f4bc 7976 3ebd 1e74 7bbd 5f7d 953c
000001c0: 9a0b 55bd 616a 343d 7235 c93d 8182 6dbd
000001d0: 62eb 153d 80f4 6dbd 4a26 a6ba 535b e53c
000001e0: 6c10 283c 52bb 9f3c b9bd 39bd 56c7 84bd
000001f0: fb44 133d 6912 f73c a85d 283d daf9 41bd
-0.06296705 0.028554792 0.0043542357 0.024825688 0.005453917 0.03799879 0.0038480181 -0.0028410803
-0.03933411 0.042232975 -0.0068759434 0.0066305827 -0.05342727 -0.012308089 -0.07232462 -0.010451973
0.036390606 -0.039857056 -0.024872353 0.021673584 -0.0057330737 -0.05104356 -0.029275222 0.030651558
-0.05523565 -0.029765893 0.08079937 0.014621542 -0.036906224 0.017364752 -0.039248347 -0.014580424
0.05946794 0.027320271 -0.007112133 0.02593261 -0.031209167 -0.022314342 -0.049965005 -0.010377745
-0.09631727 -0.01843634 -0.007836687 -0.007043587 0.001380734 -0.029130755 0.005665974 -0.027620016
0.0848991 -0.01712211 0.021303574 -0.007360102 0.014155891 0.04595407 -0.08321061 -0.064791314
0.012552841 -0.062325604 -0.031016696 0.007865818 0.05485811 -0.01148927 -0.061658908 -0.066106915
-0.004803712 -0.04802624 0.036823984 -0.021175954 -0.013878309 0.0037100767 0.061447382 0.01901532
-0.013708616 0.00038747597 -0.013666192 -0.048272528 0.035396747 -0.026568592 0.010096971 -0.03883326
-0.089033216 -0.04091825 0.036700357 0.012841626 -0.021055961 -0.06494173 -0.04008882 0.051636737
-0.044075135 0.075028 0.013157061 0.054902367 0.030208692 0.0120803155 -0.051705603 -0.06589149
0.02750991 -0.053096656 0.03975273 -0.057360545 -0.052418947 -0.031794433 0.053733647 -0.0030273763
0.026100291 0.032825887 -0.022049543 0.030264812 -0.029793262 -0.046499703 -0.061390035 0.018248258
-0.052013017 0.044046763 0.09824647 -0.057985786 0.03660143 -0.0580945 -0.0012676206 0.027997648
0.0102578215 0.019498501 -0.04534695 -0.06483333 0.035954457 0.030160146 0.041104943 -0.047357418

model.5.weight f4 [1, 6272]
00000000: 1720 3abd 2442 763c 2a75 85bc b87b 55bd
00000010: 87f4 19bd 3ce9 e5bb c0a4 233b 7972 9ebc
00000020: bbbf efbc cb48 743d b957 c53c 133a 1e3c
00000030: 89ba 8f3d ca4c 763c e9bd df3c c6da 043d
00000040: ef11 533d e565 b53d cfa5 a03c c51a 983d
00000050: 8109 2b3c efe2 803c f50c 343c 0ebc 4abd
00000060: 7165 1c3e e4b0 d13d 3b35 c73d e5ec f83b
00000070: 8d66 bb3b 7c37 9e3a 10c3 b43c b720 e23d
00000080: 37c9 923d 7b23 fe3d 2d74 4a3d 91a3 af3a
00000090: 4ce0 9a3c b99f a83d ceaf 473e 2b8a a53d
000000a0: 07af 143d ebb3 543c c764 2dbc a39e 89bb
000000b0: 90c2 acbd 4f13 9abd a772 e9bc 237c d03c
000000c0: ff3d 4b3b 60c7 193c c85b 71bd 2874 b9bd
000000d0: fc76 bcbd f442 e8bd 42e9 15be d1e6 413d
000000e0: 7aa0 92bc a4f5 8ebd 2688 8dbd 1e8c 97bd
000000f0: 5f93 e8bd 6d7d 3dbe a45f 31bc 6365 bc3b
00000100: 79d3 eebd 1002 a5bc b4c4 08be 9447 b3bd
00000110: eb7a ecbd 6560 65bc 6cdc 94bc 8d84 dfbc
00000120: b283 58bd b236 f1bd 6a38 2abe 4ff5 4fbe
00000130: b8f0 9ebc e8b5 9dbc 2b46 2abd 4ce6 84bd
00000140: 151b 8ebd 5c54 19be 5367 38be ee78 24bc
00000150: 8ce6 18bc 1f54 1ebc 6199 45bd cece c23c
00000160: 0146 08be f7f1 e0bd 55c1 ba39 8d0f 123d
00000170: 3696 ff3d 3101 d73d 3976 333d 7e52 29bc
00000180: f864 f13c 1cb0 d23a adfa c43c deec 1e3d
00000190: b5a6 f639 9b79 683d 2a74 963d 280c 553d
000001a0: 10bf bdbb 8039 403d a761 3bbd 1cc8 b9bc
000001b0: 1eb4 27be 69ba eb3c c719 b5ba 17eb 0e3d
000001c0: ecd1 5b3d 2c01 223c d5b1 bebd bc91 b6bd
000001d0: 9a0f 61bc a3ad b4bc 556d 73bb 73a6 af3b
000001e0: fbec 8fbd 518e 9bbd f0c0 f0bd 6ec7 8e3d
000001f0: 8b8c 81bc dadf 683d bbce 3e3d 4c9c f1bd
00000200: 40dd 02be f1e4 efbd 6b59 d13c 3b6d 19bd
00000210: 06d4 e43c 2901 763c db2c 97bd e159 34be
00000220: b7de 2ebd 1b8e 0ebc 8ccf a1bc 62ea 7e3c
00000230: fda1 f53c 3af4 b13b d349 1abc 1e2a 82bc
00000240: 5d17 75bc 142a a93c 176f 4d3d 7ca5 4a3c
00000250: f23d db3c 5904 17bd c575 85bd 1e2c 72bd
00000260: de3b e4bb bd41 b63c d094 e53b 6d4f e23b
00000270: 39c9 73bc 810d cbbd f815 aabd 5567 18be
00000280: 0bfc 5c3d c6eb 8fbc 6f1c 96bd 2f06 a2bd
00000290: 6b98 a7bd 8c43 09bc 9994 c4bd 533c 10bc
000002a0: 37c2 203b 74f4 a9bd e692 a8bd 4e84 9b3a
000002b0: 74f6 02be ffdb 36bd f9cb c9bd 05e8 2abd
000002c0: f2cb 6fbd 3e3e 94bd 4254 08be 18b8 babd
000002d0: e46d 26bd d99c 4cbc bae3 523c b671 89bd
000002e0: 4f3b 5bbd 4b56 a7bd fd4b e1bc 3305 bbbd
000002f0: b0c0 cbbc 4392 6f3c 8814 ab3c 8785 6b3d
00000300: b946 103d fa59 b23d 389f 4a3d 6181 7e3d
00000310: 62af cc3a 3f92 613d 028c 3d3c eb4d 9fbc
00000320: 7a6c ebbc 985d e9bb bfe0 c43c bd87 ee3b
00000330: 7413 a6bc 6524 ffbc 3431 e6bd 1499 02be
00000340: 6872 49bd b1f4 86bc 5aaa be3c 4ace 1ebd
00000350: 1819 e3bd 63ec 0cbe f006 58bd 2122 75bd
00000360: 7708 a53d 8389 2c3c aebf c7bc 16ab cdbd
00000370: 4e61 40bd cdc9 6ebe 1461 30be 7fe1 b43b
00000380: 4440 193d 7c2b 423b a592 c9bd 9a73 dfbc
00000390: f8f5 ddbd 0c7d 99bd 9e04 673d a0cb 583d
000003a0: 3cf1 a8bc e312 1b3c 6ceb b0bd 0d26 493d
000003b0: 04de 913b 7fdd 053d 9c63 483c 954c 443c
000003c0: 21a6 03bb c91d d33c d689 4c3d c7d2 433d
000003d0: d939 fa3c 5c12 8f3d 3fa2 1e3d 710f bf3c
000003e0: f071 0eba 2341 963c 7d72 423d e00c c13c
000003f0: b0f9 173d 6b9b 09bd 3053 17bd d898 8cbb
-0.04544076 0.015030418 -0.01629122 -0.05211994 -0.037586715 -0.007016329 0.0024970025 -0.019341694
-0.029266229 0.059639733 0.024089681 0.009657401 0.07018001 0.015032956 0.027312236 0.0324352
0.051530775 0.088573255 0.019610314 0.07426981 0.010439278 0.01573321 0.010989417 -0.04949575
0.15273072 0.10238817 0.0972695 0.0075965994 0.005719012 0.0012070979 0.02206567 0.11041396
0.07167285 0.12409111 0.0494272 0.0013400187 0.018905781 0.0823359 0.19500658 0.08082994
0.03629973 0.012982349 -0.010583109 -0.004199819 -0.08435547 -0.07523214 -0.028497053 0.025449818
0.0031012294 0.009385914 -0.05892542 -0.09055358 -0.09202382 -0.11340895 -0.14639762 0.047339264
-0.017898787 -0.06980446 -0.06910734 -0.07399772 -0.11356234 -0.18504877 -0.010826025 0.005749391
-0.11661429 -0.020142585 -0.13356286 -0.08753887 -0.11546882 -0.014000033 -0.018171512 -0.027284885
-0.05285997 -0.117780104 -0.16623083 -0.20308422 -0.019401893 -0.019251779 -0.041570824 -0.06489238
-0.06938759 -0.14973587 -0.18008165 -0.0100385975 -0.00933231 -0.009663611 -0.048241977 0.023780253
-0.13307954 -0.10983651 0.00035620728 0.03565936 0.12479822 0.10498274 0.043813918 -0.010334609
0.029467091 0.0016074213 0.024045313 0.038800113 0.00047044983 0.056756597 0.07346375 0.052013546
-0.0057905987 0.046929836 -0.045747425 -0.022678427 -0.16377303 0.02877541 -0.0013816886 0.034892168
0.053666994 0.009887975 -0.093112625 -0.089145154 -0.01373663 -0.022055453 -0.0037144024 0.0053604185
-0.07027622 -0.07595504 -0.1175555 0.06971632 -0.015814086 0.056854106 0.046583872 -0.117973894
-0.12779713 -0.11713589 0.025555333 -0.037457686 0.027933132 0.015014925 -0.073816024 -0.17612411
-0.042692866 -0.008700873 -0.019752286 0.015558811 0.029984469 0.0054307254 -0.009417015 -0.015889224
-0.0149591835 0.020649947 0.05015477 0.012368556 0.026762936 -0.03686938 -0.065166034 -0.059124105
-0.0069651445 0.022248143 0.007006265 0.006906441 -0.014879518 -0.09914685 -0.083049715 -0.14883168
0.053951304 -0.01756848 -0.07329642 -0.07911336 -0.08183368 -0.008377921 -0.09598655 -0.008803445
0.0024529824 -0.08298579 -0.08231144 0.0011864991 -0.12789327 -0.0446434 -0.09853358 -0.041725177
-0.058544107 -0.07238434 -0.13313392 -0.09117144 -0.040632144 -0.012488567 0.012871677 -0.06711142
-0.053523358 -0.08170756 -0.027502054 -0.09131851 -0.024872154 0.014622274 0.020883814 0.05750039
0.035223696 0.08708568 0.04946825 0.062135104 0.0015616233 0.05507111 0.011569025 -0.019446334
-0.02873825 -0.007121753 0.024032949 0.007279365 -0.020272948 -0.031145284 -0.112398535 -0.12753707
-0.049181372 -0.0164741 0.02327459 -0.03877095 -0.11088771 -0.1376205 -0.05274099 -0.059847
0.08058255 0.010530832 -0.024383392 -0.10042398 -0.046967797 -0.23319168 -0.17224532 0.0055200453
0.037414804 0.002962797 -0.09842423 -0.027276803 -0.108379304 -0.07494554 0.056400888 0.052928567
-0.020622842 0.009464952 -0.08638653 0.049108554 0.004451515 0.03268194 0.01223078 0.011981149
-0.0020088034 0.025771039 0.049936138 0.047808435 0.030545162 0.06985924 0.03872895 0.023322793
-0.0005433848 0.018341606 0.047472466 0.02356571 0.037103355 -0.033595484 -0.03694457 -0.0042906813
