model/discriminator_49.pth (torch, 557154 bytes, 5 tensors)

model.0.weight f4 [64, 1, 4, 4]
000000 3e c1 9a 3e 01 23 35 be 82 10 42 be 49 88 48 3e
       0.30225557 -0.17689134 -0.1895161 0.19583239
000010 9c 55 8e 3e 77 d0 55 be db df 64 be e9 cc 1a bd
       0.2779969 -0.20880304 -0.22351019 -0.037793074
000020 72 e2 b4 3e 4c 82 13 3e 91 3f 71 be 6e 84 42 3d
       0.35329014 0.14405173 -0.23559405 0.047489576
000030 55 f2 7c bd b0 e5 37 3e 9c 43 19 be 02 28 15 3d
       -0.061754543 0.17958713 -0.14967197 0.036415108
000040 55 49 5d bd 47 24 23 3e 1c 85 bb 3d f6 de ee 3d
       -0.054025013 0.15931807 0.09156248 0.1166362
000050 b9 a1 34 3d a9 e2 0d be 74 da 34 3d bd 36 35 be
       0.044099543 -0.13855995 0.044153646 -0.17696662
000060 77 3f bc 3d a1 2a 0c be 5a 2b e4 3d 13 12 c4 bd
       0.091917925 -0.13688137 0.11141081 -0.0957376
000070 60 4a 37 be 29 93 75 be 06 ae 81 3e 10 14 8d be
       -0.17899466 -0.23981918 0.25328082 -0.2755437
000080 99 5f 06 be a9 64 dc b9 6c 65 4b 3d 3a b9 00 3e
       -0.13122405 -0.00042036668 0.04965727 0.12570658
000090 d3 09 ed bd d8 32 86 be 3c f7 62 3e 12 ce b3 3d
       -0.115741394 -0.26210666 0.22164625 0.08779539
0000a0 51 dc c4 bd 00 cc 2f be c1 7d cb 3d 03 bc 7e 3e
       -0.096123345 -0.17167664 0.09936095 0.24876408
0000b0 46 94 23 3e bb 0d 2a bd d0 cb df bd 54 57 fe bc
       0.1597453 -0.041517 -0.10927546 -0.0310475
0000c0 2b 46 0d be 0f 1f 91 3e ab 76 6d bd 22 4b 9d 3e
       -0.13796298 0.28344008 -0.0579745 0.30721384
0000d0 50 f7 6b 3e 18 26 32 3e 20 0e d0 3d 43 0d 73 3e
       0.23043561 0.17397344 0.10158944 0.23735528
0000e0 e3 ee 88 be 2b e1 28 be 74 ec 1b be f2 23 18 be
       -0.26744756 -0.16492145 -0.15226918 -0.14857462
0000f0 e4 60 98 bd 13 aa 14 be 56 15 31 be 2a f3 20 bd
       -0.074403554 -0.14518003 -0.17293295 -0.0392944
000100 e7 5b 59 be f4 ec ea bc f2 4a 1e be 0d 70 5f bd
       -0.21226464 -0.028677441 -0.15458277 -0.05455022
000110 d2 be 1a be 9b 1a a2 bd 44 3b 63 bd 92 0f 2b 3e
       -0.15111855 -0.07915231 -0.055476442 0.16705158
000120 54 17 1a be 83 98 37 be 06 32 2d 3e 3e 83 2e be
       -0.15047961 -0.17929272 0.16913614 -0.17042252
000130 66 be c2 3d 77 90 31 be 0c ae 02 be f2 46 12 3e
       0.09508972 -0.17340265 -0.12761706 0.14284876
000140 4e 44 7c be 24 ec 06 be 2c 59 07 be c8 01 6a bd
       -0.24635431 -0.13176018 -0.1321761 -0.057130605
000150 c9 f4 ed bd 19 fc 3c be 1e 49 b9 be f6 36 9f be
       -0.11618955 -0.18455543 -0.36188596 -0.3109662
000160 a5 71 74 be 95 16 3f 3e eb 0d 5f 3d 0c cf a8 3c
       -0.23871477 0.18660958 0.054456633 0.02060654
000170 23 cb bf 3e 4e 33 ce 3e 70 51 9d 3e de b5 56 3e
       0.3745967 0.40273517 0.30726194 0.20967814
000180 c1 8d 24 be b1 0a ae bd 5b 5d 6a be f4 a9 ce 3c
       -0.160697 -0.08498133 -0.22887175 0.025227524
000190 6f cb 8e 3e 88 3d 71 3e 7e 2a 2e 3e ad 9a 2f be
       0.27889583 0.23558629 0.17008397 -0.17148848
0001a0 37 7c 89 be 74 3a 8e be 99 8c 1b 3e 09 fa fd 3d
       -0.2685258 -0.2777897 0.15190352 0.12401206
0001b0 e8 b9 4b 3e 48 c1 f0 bd 6a 14 0e be 9c 56 18 bd
       0.19895136 -0.117556155 -0.13874975 -0.037191972
0001c0 57 c4 e9 bd fd 65 5d 3e 14 75 12 be 99 5b c0 3c
       -0.11414402 0.21620937 -0.14302474 0.023481177
0001d0 9c f4 31 3e 37 1a 3b be 07 f3 af bd 99 56 cb 3d
       0.17378467 -0.18271719 -0.08591276 0.099286266
0001e0 dc 1d 8c bd fc be 5c be 01 23 d1 be 4a e4 88 3e
       -0.06841633 -0.2155723 -0.40847018 0.2673667
0001f0 0c e1 3f 3e 08 0e af bc cf 76 b0 bd d1 4d 82 3e
       0.18738192 -0.021368995 -0.08616411 0.25449994
000200 e3 d5 7d bd f0 67 cc bd 7f 04 26 be 1e cc 1d be
       -0.061971556 -0.09980762 -0.16212653 -0.15409896
000210 8b a1 0d 3e cd 09 89 bc 50 0a 1d bc b1 a5 83 be
       0.13831155 -0.016728306 -0.009584978 -0.2571235
000220 59 8a 4b 3e 21 58 68 3e 20 06 05 3e 9a 2d 1e 3e
       0.19876994 0.22689869 0.12990618 0.15447083
000230 b2 4c c2 bd 8a 9c 92 3e 69 47 bb bd 45 41 2a 3e
       -0.09487285 0.28635055 -0.0914448 0.16626461
000240 9e cf 8d 3b 27 2f 36 3d 83 1e 98 3e dd b5 b8 3d
       0.0043277284 0.04447856 0.2971078 0.09019063
000250 dc f2 81 be 07 73 77 be 63 41 e1 3d 9b cd 81 3e
       -0.253806 -0.24164973 0.109988 0.25352177
000260 66 02 17 be db ca 7a be e9 d9 24 be cd 20 89 3e
       -0.14747009 -0.24491446 -0.16098751 0.26782838
000270 a1 81 bb bd 28 96 b7 be 64 08 7b 3e 6b 84 a9 3d
       -0.09155584 -0.35856748 0.2451492 0.0827721
000280 c3 89 cc 3d fe 3e 78 3e 32 17 65 be 97 e1 ef 3d
       0.099872135 0.2424278 -0.2237213 0.1171295
000290 97 07 8b 3a df 33 44 3e cd fc af bd df cc 06 bc
       0.001060712 0.19160412 -0.0859314 -0.008227556
0002a0 43 13 b3 bd 56 2e 23 be 19 4f 20 3e a8 09 32 be
       -0.08743908 -0.15935645 0.15655173 -0.17386496
0002b0 cb 0a 52 be 74 0c 07 3c d0 15 62 3d 67 1c c0 3c
       -0.2051193 0.008242715 0.055196583 0.023451043
0002c0 b6 57 7e 3e 47 98 10 be b2 86 f3 3c a8 29 e3 bd
       0.24838147 -0.14120589 0.029727314 -0.1109193
0002d0 c2 18 66 be 10 e0 77 3b c1 0e 08 be 36 15 a3 bd
       -0.22470382 0.003782276 -0.13286878 -0.0796303
0002e0 ff 36 2a 3e 5a fc 8c 3d d2 73 d8 bd 63 77 fa bc
       0.16622542 0.0688407 -0.10568966 -0.030574506
0002f0 99 a9 56 be f9 e6 11 bd 33 07 0e 3e 4a 46 43 3e
       -0.20963134 -0.035620663 0.13869934 0.19069782
000300 6a 8c 13 be b3 0d 74 3d f2 8c ec bd 78 45 31 3c
       -0.14409032 0.059583377 -0.11550321 0.010819785
000310 2e 39 9e bd 51 e4 6d be 23 88 04 be 08 5d 80 3c
       -0.0772575 -0.23231627 -0.12942557 0.01566936
000320 ea f8 97 3e c5 1f 31 bd 1b ed b5 3d dd 6f 16 3e
       0.29682094 -0.04324319 0.08883115 0.1469111
000330 df 0c bf 3d f8 df 0a 3e 5c ba a0 3e 49 f1 d4 be
       0.09328627 0.13562 0.3139218 -0.41590336
000340 ef 0b 7a bb 29 c2 5b be 20 df 36 be c3 f0 51 3d
       -0.0038154086 -0.21460785 -0.17858553 0.051255
000350 47 a3 1a 3d d0 43 8e 3d a2 4f 84 3e 93 ec 6a bb
       0.03775337 0.06946528 0.25842005 -0.0035846576
000360 cd 95 d1 3d 3a 22 1c 3e bf 97 a4 3e 80 b6 e2 bc
       0.1023365 0.15247431 0.32147023 -0.027674913
000370 36 67 d6 bd 95 6c 0f be 76 22 bc be c4 82 3e 3e
       -0.10468905 -0.14006265 -0.36745042 0.1860457
000380 2f f1 3f be 9f e1 ff bb 9d 6f 24 3e fc c9 e2 3c
       -0.18744348 -0.0078088786 0.16058202 0.027684204
000390 ea 06 96 bd b2 28 26 3e 87 ce 11 3f ea b2 6f 3d
       -0.073255375 0.16226462 0.5695576 0.058520235
0003a0 d3 5d 27 3e d4 8d c3 3e cf 94 2f 3f cd 0f bd 3e
       0.16344385 0.38194144 0.6858644 0.36926118
0003b0 0a 52 ae 3d 64 5a 9c 3e cc 78 be 3e 8c 94 b5 bd
       0.085117415 0.30537713 0.37201536 -0.08866224
0003c0 26 2b 41 3d e2 45 35 bd 05 9e 84 be f0 87 ba 3d
       0.04716029 -0.0442561 -0.2590181 0.09107959
0003d0 f4 27 f8 bd 27 1f b5 bd 27 a1 01 be 12 37 e7 bd
       -0.121169955 -0.088438325 -0.12659131 -0.11289801
0003e0 63 40 c2 bd 46 d0 16 be cf 13 82 3b a4 ec 8c 3d
       -0.09484937 -0.14727888 0.0039696465 0.06881073
0003f0 0a da 6c 3a be 17 aa bd e8 60 5d 3e b8 b0 51 3e
       0.0009035176 -0.0830531 0.21618998 0.20477569

model.0.bias f4 [64]
000000 9b 57 89 be a4 4a ca 3d 05 27 5d 3d 90 dd 1d bd
       -0.2682465 0.09877518 0.05399229 -0.038541377
000010 ac f7 7f be 73 54 79 be d1 a5 ee bd cc a0 13 be
       -0.24996823 -0.24348621 -0.11652721 -0.14416808
000020 29 20 62 3e 46 a2 ad bd 47 bb 96 3d 74 75 5d 3e
       0.2208258 -0.08478217 0.07359939 0.21626836
000030 b7 4b 15 be 5b 1d 20 be 68 59 82 3c 9e 6d e1 bd
       -0.14579664 -0.15636198 0.015911773 -0.11007236
000040 28 e2 78 be e5 8d 9c bd f2 2f 8e 3d c6 39 11 3e
       -0.24305022 -0.07644252 0.069427386 0.14182195
000050 1c 59 97 3d b0 ef 20 bd b7 27 80 3d 37 9b 51 be
       0.07390043 -0.039291084 0.06257575 -0.20469366
000060 9f af 84 3c 1c 43 da bd ff 73 30 bc 37 aa 80 be
       0.016197024 -0.10657331 -0.010769843 -0.25129864
000070 d3 f8 86 3c f3 af f4 bd 80 7b 64 3e 53 26 98 bd
       0.01647607 -0.11947622 0.22312737 -0.07429185
000080 e2 42 60 be a3 6d 2f 3e e6 3d 31 3e 47 22 dc bd
       -0.21900514 0.17131667 0.17308769 -0.107487254
000090 5f ea 10 3e 41 5d 92 be cc 79 e5 3d f4 7f 82 3c
       0.14151905 -0.28586772 0.112048715 0.015930153
0000a0 e7 d1 7d be 2e 74 45 be ad 19 4e bd c9 21 4e be
       -0.24787103 -0.192826 -0.050317455 -0.20130076
0000b0 3f 10 b2 be a9 8f fc b9 28 ff 55 3e d2 51 89 bd
       -0.3477802 -0.0004817222 0.20898116 -0.06705059
0000c0 b0 2d 6c bc f8 59 8f 3d c5 fe 31 be d7 f3 d8 bd
       -0.01441519 0.06999582 -0.17382343 -0.10593384
0000d0 7d 16 9e be 76 24 3d be f3 d4 ed bc 92 c1 cc bd
       -0.30876532 -0.1847094 -0.029032206 -0.09997858
0000e0 a8 b5 dd 3d 94 7f 8f be 1e 37 10 be 59 90 ea 39
       0.10825664 -0.28027022 -0.14083526 0.00044739505
0000f0 c3 1e 0d be 09 bb dd 3d 84 9c 59 3e 49 b1 10 be
       -0.13781266 0.1082669 0.21251112 -0.14130129

model.2.weight f4 [128, 64, 4, 4]
000000 55 83 55 3e 0c 84 be 3d b8 60 fd 3c d0 23 65 bc
       0.2085088 0.0930253 0.030929908 -0.013985589
000010 90 b6 7a 3e 1c 6d 75 3d ec a8 a2 3d 7b 8e e4 3d
       0.24483705 0.059918508 0.079423755 0.111599885
000020 c1 e1 72 3e df 9f 15 bd ff f0 f3 3d 6d f4 0a 3e
       0.23718931 -0.036529418 0.11911201 0.13569804
000030 43 40 26 3e a3 df 57 3d 32 d3 b9 bd ff 27 26 3d
       0.16235451 0.05270351 -0.090734854 0.040565487
000040 ac a3 a3 bd d0 9e 16 bd 8c 1e 3d bd 7b 3c 8d bd
       -0.07990202 -0.03677255 -0.04617171 -0.06896301
000050 3f 8c b0 bd 78 36 1d bd 95 b7 77 bd 40 0e a7 bc
       -0.086205 -0.038382024 -0.06047781 -0.020392537
000060 a3 86 45 bc c2 ef 82 bd da c5 7d bb 3d 55 6f bd
       -0.012056026 -0.063933864 -0.0038722665 -0.0584309
000070 77 c7 a9 bb c2 e0 b1 bb 1b dc 2d bd ee af 96 bc
       -0.0051812488 -0.0054284045 -0.042446237 -0.018394437
000080 31 17 55 bd cc 0a ab bc 75 f5 21 bc a0 a7 51 bc
       -0.05202407 -0.020879172 -0.009885182 -0.012796313
000090 89 64 8b bd c1 9a 9d bd f0 76 f4 bb 1f 70 8f bc
       -0.06806285 -0.076955326 -0.0074604675 -0.017509518
0000a0 4a 37 ff 3c 02 6b 09 bd f4 6c d5 bc 3a b0 55 3c
       0.031154294 -0.033549316 -0.02605293 0.013042504
0000b0 d7 79 95 bb 57 d3 5d 3c 43 98 84 3c 9f f2 5a 3d
       -0.0045616436 0.013539157 0.016185885 0.053454038
0000c0 f9 a1 ee 3c d5 2e f8 bc e6 08 0b bd 6e bc df 3b
       0.029129969 -0.030295769 -0.033944033 0.0068278825
0000d0 e3 d2 11 3d 8e 7b 0e bd fd 40 5e bd 13 b8 93 bd
       0.035601508 -0.0347858 -0.054261196 -0.07212844
0000e0 5a 72 27 3d 45 12 61 bc 3c 0b 80 38 03 47 9d 3d
       0.04088054 -0.013737266 6.105608e-05 0.0767956
0000f0 64 b6 b0 bc c2 de dd bc af 09 a4 b9 0a 86 e6 bc
       -0.021571346 -0.027083758 -0.00031287732 -0.028140087
000100 a4 58 13 3d ab 87 47 3d 5d b2 48 bc 09 e6 d6 3c
       0.035973206 0.048713367 -0.012249556 0.026232736
000110 b9 76 58 3d 83 ed a5 3b b4 f0 b9 3c 38 b2 12 3d
       0.052847598 0.005063714 0.022697784 0.035814494
000120 9c 82 b4 ba 01 a5 30 3d 0e 7c 6f 3d d9 0b fd 3c
       -0.0013771835 0.04312611 0.058467917 0.030889438
000130 68 94 60 3d b0 21 8f 3d c3 8e 4d 3d a9 b6 1c bc
       0.05482903 0.06988847 0.050184976 -0.009565034
000140 e7 41 b2 3d c5 38 eb 3d 4e f7 f2 3d 59 ea cf 3c
       0.08703976 0.11485437 0.11863576 0.0253803
000150 68 37 82 3d 05 d7 f5 bd b8 9c 15 bd 96 71 00 bd
       0.06358224 -0.12003902 -0.03652641 -0.031358324
000160 13 21 34 bc dd 05 9e bd c3 a1 29 3d 3a fa 25 3d
       -0.010994214 -0.07715962 0.041414034 0.040521838
000170 7e e8 77 bc d5 dd a4 3c 38 11 85 bc a7 7b bf bc
       -0.015131114 0.020125309 -0.016243562 -0.023374392
000180 72 71 9f bd 7d c3 ef 3b 0e 06 1c bd fb 2e e5 bd
       -0.0778531 0.007317005 -0.03809171 -0.111906014
000190 d6 dd e7 bd 65 c1 b0 3a 55 b1 9a bc cd 8d d9 bd
       -0.11321609 0.001348537 -0.018883387 -0.106227495
0001a0 98 de 21 bd 70 59 7f 3d 93 56 af 3c bd 41 d6 bd
       -0.039518923 0.062341154 0.021403586 -0.10461757
0001b0 bf a5 2d bd cc 6c c0 3c 9e 39 f6 bc 91 14 0a bc
       -0.042394396 0.023489378 -0.03005677 -0.008427755
0001c0 67 ad 03 be 88 a7 c7 bd 2e f5 ef 3c 20 b6 be 3d
       -0.12859116 -0.09748751 0.029291715 0.09312081
0001d0 7f 9f 4c 3c 26 ae 05 be dd 7a a1 bd 45 95 17 3e
       0.012489199 -0.13054714 -0.078847624 0.14803036
0001e0 37 06 7e bd 71 cc 74 bd fe 53 9d 3c 7e d6 5a 3e
       -0.062017646 -0.059765283 0.01920509 0.21370885
0001f0 18 a1 55 bd 05 b1 a2 bd 4a 50 c8 bc a2 61 91 3b
       -0.052155584 -0.0794392 -0.024452347 0.0044366876
000200 46 2d 2f 3c 75 f7 a6 bc c3 1f 8a bd 00 4d 35 bd
       0.010691946 -0.020381669 -0.06744339 -0.044262886
000210 6e 7e 08 bd 5c bb 70 bd b2 dd 99 bd 52 98 e8 bd
       -0.033323698 -0.05877243 -0.07512988 -0.11357178
000220 b9 88 6f bd db cc b6 bb 93 f6 02 bd 7a bb c9 bc
       -0.05848 -0.00557862 -0.031973433 -0.024625529
000230 3d dd 9d bc bd 15 a0 bc 4a 80 c5 b8 3e 31 40 bd
       -0.019270534 -0.019541616 -9.417588e-05 -0.04692196
000240 29 24 cb 3b 7c 93 4d bd 61 d6 74 3d 38 c8 48 bc
       0.006199379 -0.05018948 0.05977476 -0.012254767
000250 68 d2 25 3c 59 76 d7 bd 84 c5 0d 3d c2 31 bf 3d
       0.010120966 -0.1052062 0.034612194 0.093356624
000260 5b 14 0b 3c e4 ff b4 3c e8 d0 38 3d c1 25 ed 3c
       0.00848874 0.022094674 0.045121104 0.028948667
000270 3d 7c 8b 3c 2e 29 4b 3d 41 a0 1d 3d 32 58 d3 3c
       0.017027015 0.04959982 0.03848291 0.02579889
000280 00 3d 27 bd 24 aa 89 bc 9b db 31 bd 18 d8 e1 3b
       -0.04082966 -0.016804762 -0.043422323 0.0068922155
000290 36 0e ee bc 4e 65 32 3d af 86 62 bd e4 fe 43 bd
       -0.02905951 0.043553643 -0.055304226 -0.047850505
0002a0 26 ba 0d 3d 8c 23 49 bc 68 ec f2 bc 9b 8b 2f bd
       0.034601353 -0.012276541 -0.029653743 -0.042857748
0002b0 96 e1 ae bc 24 e3 88 bc 29 50 0b bd 2f 85 b6 bc
       -0.021347802 -0.016709872 -0.034011994 -0.022280304
0002c0 3c 42 a2 bc 88 69 18 bc 8e 8a 69 bd fd 80 dc bb
       -0.019806974 -0.009302504 -0.0570169 -0.006729244
0002d0 0e a8 49 bc ff a5 18 bc f5 80 0e bc a5 86 c2 bc
       -0.012308134 -0.00931692 -0.008697738 -0.023745844
0002e0 ea 63 16 bd 8b 96 45 bd 0f 15 cf bb 9a 82 06 bc
       -0.03671638 -0.048239272 -0.006319649 -0.008209849
0002f0 f1 93 f8 3c 63 73 85 3c 18 30 66 3b 53 45 a3 bb
       0.030343981 0.016290372 0.003512388 -0.0049826293
000300 b9 19 7f 3d ad 2a e1 3d d2 78 d5 3d 75 a9 93 3d
       0.06228039 0.10994468 0.10423435 0.07210056
000310 45 5f bf 3d 4b 13 99 bc 0e 39 9c 3c f7 27 17 3d
       0.09344343 -0.018685957 0.019070175 0.036903348
000320 9f 84 20 3d f5 8b ae bc 57 86 be bc 00 5c 70 3d
       0.039188977 -0.021306971 -0.023257418 0.058681488
000330 64 29 4a 3c 82 5c 91 3d d0 c4 bf 3d 8f 66 9e 3d
       0.01233897 0.070977226 0.09363711 0.07734405
000340 ab 49 cc 3d 25 19 2b bd 59 a3 49 3d fe 41 05 bd
       0.099749885 -0.041772027 0.049228046 -0.03253364
000350 db c9 fb 3d 48 1d b9 bc cf ad 04 3d 7d fd 82 bd
       0.1229436 -0.02259697 0.03239232 -0.06396005
000360 d9 57 93 3d 1c 47 19 3e 12 0c e6 3d 72 eb b7 3d
       0.0719449 0.14968532 0.11232771 0.089804545
000370 d1 1c 10 3e 59 41 86 3d 9f cb 1d 3c 6a 02 8c 3d
       0.14073493 0.06555433 0.009631067 0.06836398
000380 f4 f1 f9 3d 88 39 02 3d 7f b9 a8 ba 10 5a 28 3d
       0.12204352 0.031793147 -0.0012872665 0.041101515
000390 0c 7b df 3d 9d 13 7b 3d 8c 82 5e bd ab 34 41 bc
       0.10912141 0.061298 -0.054323718 -0.011792342
0003a0 6e 08 93 3d 67 1c 7e 3d 16 53 da bc c4 fe 37 3d
       0.07179342 0.062038805 -0.026650947 0.044920698
0003b0 d9 c1 aa 3d 83 b0 4b 3b 20 7e 01 3d 6b 59 3a 3e
       0.08337755 0.003108055 0.031614423 0.18198173
0003c0 14 52 34 bb 97 cd bf 3d fe d8 3e 3d f2 fc 01 bc
       -0.0027514743 0.09365385 0.04659366 -0.007933842
0003d0 2d 2c 26 bd eb bb 12 bd c5 c6 70 3b aa 5b 8d 3c
       -0.040569473 -0.035823744 0.003673957 0.017255623
0003e0 d6 b2 d5 bc fc 06 4b bd 8a d6 16 3d ee ed 4c 3c
       -0.026086252 -0.049567208 0.036825694 0.012507899
0003f0 fb 0e 74 3c 4e 42 09 3c 33 35 82 3d 14 70 a8 3c
       0.01489615 0.008377625 0.06357803 0.020561256

model.2.bias f4 [128]
000000 00 04 84 bd e6 42 f9 3c 4a ae ed 3b 34 5c d2 3c
       -0.064460754 0.030427407 0.007253443 0.025678732
000010 2b 36 c3 3b 8a 33 13 3d ed 8e cd 3b 7e 8b 7f bb
       0.005957385 0.035937823 0.0062731416 -0.0038993056
000020 8c c3 22 bd 5e 54 36 3d d0 60 d0 bb 60 7b d8 3b
       -0.03973727 0.044514053 -0.006359197 0.0066065043
000030 b6 a8 69 bd 61 c7 b6 bb de 17 9a bd eb 43 17 bc
       -0.05704566 -0.005577967 -0.075240836 -0.0092325015
000040 3d de 13 3d f9 72 3e bd d0 ae c5 bc 6a c4 c4 3c
       0.036100615 -0.046496365 -0.024131209 0.024019439
000050 db 49 fe bb ff f4 3d bd e0 74 14 bd ae db f8 3c
       -0.007760269 -0.046376225 -0.036244273 0.030378189
000060 f0 be 6b bd 32 62 0c bd a3 b6 aa 3d 4f da 7e 3c
       -0.05755514 -0.034273334 0.083356164 0.0155549785
000070 a3 0b 13 bd 05 39 97 3c e0 8d 12 bd 1f aa 87 bc
       -0.03589977 0.018459806 -0.035779834 -0.016560612
000080 cb 66 86 3d 62 78 ef 3c ed 33 52 bc 6e dd d6 3c
       0.06562575 0.029232208 -0.012829763 0.026228633
000090 89 ce 04 bd 46 be ee bc 89 8b 6d bd f0 d1 5a bc
       -0.03242353 -0.029143464 -0.0579944 -0.013355717
0000a0 92 ae e0 bd 0b 53 9e bc 07 1e 49 bc 32 6f b3 bb
       -0.10970797 -0.019326707 -0.0122752255 -0.005475902
0000b0 0e 38 2d 39 29 40 09 bd c7 8c a6 3b 7a 81 ea bc
       0.00016519448 -0.033508454 0.0050827 -0.028626192
0000c0 cf 40 b8 3d 3f 62 6f bc c9 57 bf 3c b6 b9 43 bc
       0.08996736 -0.014610826 0.023357289 -0.011946132
0000d0 b9 22 8e 3c 35 2c 49 3d 82 d6 ba bd e4 b9 85 bd
       0.017350541 0.049114425 -0.09122945 -0.065295964
0000e0 00 7d 78 3c 0d 85 8b bd 20 eb 1f bd 07 ec 3a 3b
       0.015166521 -0.06812487 -0.039042592 0.002852203
0000f0 92 29 53 3d ac 3c 23 3b 32 7f 89 bd 31 7a 92 bd
       0.051553316 0.002490799 -0.06713714 -0.071522124
000100 e8 b1 c0 bb 86 f1 3f bd ca 2d 22 3d 39 80 a0 bc
       -0.005880583 -0.046861194 0.03959445 -0.019592391
000110 bf 5d 4a bc cc 64 88 3b 7a 6b 89 3d 75 ee ab 3c
       -0.012351452 0.0041624065 0.06709953 0.020987729
000120 68 c9 9b bc e1 e1 17 3b 8e 6b 7a bc e8 7b 50 bd
       -0.019016936 0.0023175406 -0.015284432 -0.050899416
000130 a6 fd 21 3d 77 dc e0 bc 17 5c 05 3c 33 4e 1c bd
       0.03954854 -0.027448876 0.008139632 -0.038160514
000140 71 a0 bf bd e6 39 24 bd c9 8d 21 3d 43 fa 88 3c
       -0.09356774 -0.04009428 0.039441857 0.016720897
000150 e2 59 b1 bc 74 dd 8b bd d6 e5 31 bd bd 93 67 3d
       -0.021649305 -0.06829348 -0.04343208 0.05653738
000160 ea 01 36 bd 7f e4 b2 3d 19 81 8d 3c 37 2f 64 3d
       -0.04443542 0.087349884 0.017273473 0.05570909
000170 31 e1 c7 3c 61 32 9a 3c de 3b 6e bd 13 2e 92 bd
       0.024399372 0.01882285 -0.058162563 -0.07137694
000180 ba 5d f1 3c 31 80 62 bd 76 7b 1f 3d 99 1b 7c bd
       0.029463638 -0.055298034 0.0389361 -0.061549757
000190 d9 cd 65 bd 27 f7 10 bd aa 77 63 3d 3b cf a8 ba
       -0.056104515 -0.035391953 0.055534042 -0.0012879142
0001a0 2f 3b dd 3c 51 b2 0e 3d c5 12 f4 bc 5c ed 01 3d
       0.02700576 0.034838025 -0.029794106 0.031720504
0001b0 ad 79 fc bc 46 9f 4c bd 46 eb 83 bd cf 8e 8c 3c
       -0.030819738 -0.049956582 -0.06441359 0.01715794
0001c0 78 02 8b bd a4 1a 2f 3d fe 3a cc 3d 12 05 75 bd
       -0.0678758 0.042750016 0.09972189 -0.05981929
0001d0 fb 79 09 3d 7c 88 7b bd 2a 66 62 bb 9b 6d ff 3c
       0.033563595 -0.06140946 -0.0034545758 0.031180194
0001e0 88 b2 1e 3c 78 f8 a3 3c 16 46 44 bd 9e 25 97 bd
       0.00968612 0.02001594 -0.0479184 -0.07380222
0001f0 8a b4 09 3d e4 27 22 3d 1a 0a 2d 3d 7d 18 56 bd
       0.03361944 0.039588824 0.04224596 -0.052269448

model.5.weight f4 [1, 6272]
000000 a1 e3 38 bd c0 d3 90 3c 0b 22 0f bc 02 a0 49 bd
       -0.04513896 0.017679095 -0.008736144 -0.04922486
000010 c0 f6 67 bd 4c 5e 14 bc f7 42 0f 3b 14 2a c6 bc
       -0.056631804 -0.009055685 0.0021859983 -0.024189986
000020 48 6a e3 bc b4 de 69 3d 1f 1e 5b 3c e8 10 60 3c
       -0.02776064 0.057097152 0.013373881 0.013675906
000030 33 19 92 3d 91 fc 97 3c 2c d6 08 3d ed 7e e5 3c
       0.071337126 0.01855305 0.033407375 0.028014624
000040 c4 4a 43 3d 75 30 b7 3d 51 71 79 3c 9a 97 76 3d
       0.047678724 0.08944789 0.015224771 0.060203172
000050 e7 cd 86 3c cf 2f 89 3c a8 26 40 3b 98 cd 5f bd
       0.016455604 0.01674643 0.0029319916 -0.05463943
000060 9e fd 23 3e 98 fe c8 3d 71 7d b7 3d a0 fb 64 3c
       0.16014716 0.09814185 0.08959473 0.013976008
000070 6e e4 65 3c 75 b1 8e bb 77 fd 2b bb eb 28 01 3e
       0.014031513 -0.0043546506 -0.0026243606 0.12613265
000080 93 7f 8f 3d 47 a4 f3 3d ff f8 3a 3d 62 6f 81 3b
       0.07006755 0.11896568 0.045647617 0.0039500454
000090 f8 90 a2 3c fe 1a 99 3d 93 ba 49 3e 01 19 90 3d
       0.019844517 0.074758515 0.19700079 0.07036019
0000a0 62 64 2b 3d e0 7d 7f 3c a8 73 1f bc 95 e8 25 bc
       0.04184378 0.015593976 -0.009732164 -0.010126253
0000b0 a1 34 c0 bd 5a 94 a0 bd d6 d8 ea bc 68 1f 18 3d
       -0.09385038 -0.07840796 -0.028667849 0.037139326
0000c0 c9 b0 6e 3b 0d 9b 1d 3c 5a a6 0e bd 3e cc 92 bd
       0.003642129 0.0096194865 -0.034826614 -0.07167862
0000d0 ef b3 dc bd bc ec 0c be ae 24 24 be 6b 99 50 3d
       -0.10776507 -0.13762182 -0.16029617 0.05092756
0000e0 f4 7c 90 bc 43 28 88 bd 68 e5 c0 bd 3c 32 98 bd
       -0.017637707 -0.06648304 -0.09418756 -0.074314564
0000f0 90 e7 08 be 1a d2 5c be 8d 37 21 bc f4 de 1e 3c
       -0.13369584 -0.21564522 -0.0098399045 0.009696711
000100 8f 80 10 be 25 ea ab bc 97 6d 0d be e0 3b bf bd
       -0.14111541 -0.020985672 -0.13811336 -0.09337592
000110 74 c6 f6 bd ef 89 8c bc 74 23 72 bc c6 2a 14 bd
       -0.12049571 -0.017155616 -0.0147789605 -0.036173604
000120 20 2d 28 bd 4d cf eb bd 49 4f 27 be 50 7f 46 be
       -0.04105866 -0.11514149 -0.16338839 -0.19384503
000130 57 0c e9 bc 76 c5 83 bc ea 4b 36 bd 3c 0e 56 bd
       -0.028448267 -0.016085368 -0.04450599 -0.05225967
000140 16 78 89 bd 79 e9 21 be 49 73 3c be cd d5 74 bc
       -0.06712358 -0.15811719 -0.18403353 -0.014943552
000150 94 f7 9b bb 2e 07 36 bc 71 7a 39 bd 8f 92 85 3c
       -0.004759738 -0.01111011 -0.045282785 0.016305236
000160 98 be 08 be c5 d8 e6 bd 3d 52 7c 3a 5b ca 0c 3d
       -0.13353956 -0.11271814 0.00096252916 0.03437267
000170 4a 79 14 3e 52 d2 de 3d 78 0d 71 3d 58 ca 6b bc
       0.14499393 0.10879959 0.058850735 -0.014391504
000180 77 81 0e 3d 36 ba 3a 3c 51 b8 cf 3c 3b 36 2e 3d
       0.034791436 0.011396935 0.025356444 0.042532187
000190 e3 d8 10 3b c3 f7 76 3d ab d2 98 3d f1 a7 6b 3d
       0.002210193 0.060294878 0.07462057 0.05753321
0001a0 e3 3d f1 bb 0c ba 41 3d ca 57 1f bd df ba ba bc
       -0.007362114 0.04729657 -0.03890208 -0.022794185
0001b0 3d e9 34 be 13 19 d7 3c 6f 99 c0 bb 73 e8 3e 3d
       -0.17667098 0.026257074 -0.0058776657 0.0466084
0001c0 8e 8d 4b 3d ea 7f 79 3b cc f0 c0 bd 0a d9 ad bd
       0.049695544 0.0038070627 -0.09420928 -0.084886625
0001d0 39 98 d2 bc f3 57 9b bc ff 02 e7 bb 16 1c e6 3a
       -0.025707351 -0.018962836 -0.0070499177 0.0017555978
0001e0 70 5d a8 bd d0 fe a5 bd e4 14 f0 bd b9 04 95 3d
       -0.08220947 -0.08105242 -0.117227346 0.072762914
0001f0 55 c1 fc bc 97 55 64 3d a8 63 40 3d bd d3 16 be
       -0.030853907 0.055745687 0.04697004 -0.14729209
000200 c7 89 05 be 00 28 e2 bd 45 fe c2 3c 43 6d 18 bd
       -0.13040839 -0.11042786 0.023802886 -0.037213575
000210 e5 96 ec 3c ed d8 ec 3c b7 47 b8 bd bc 2b 38 be
       0.028880546 0.028912032 -0.089980535 -0.17985433
000220 50 6e 05 bd 62 ee 01 bc cc 64 ec bc 4d 22 87 3c
       -0.032575905 -0.00793037 -0.028856657 0.016495848
000230 61 0c d9 3c c3 9a 78 3a 7e 44 66 b9 08 0b 51 bc
       0.02649516 0.00094835105 -0.00021960025 -0.012758978
000240 90 cf bb bc 7b e7 1c 3c 1a 58 87 3d b1 ea 04 3c
       -0.022926122 0.009576674 0.06608601 0.008112595
000250 94 f4 96 bc 03 f9 48 bd 90 bd cd bd 35 8f 6d bd
       -0.01842717 -0.0490656 -0.10045922 -0.0579979
000260 33 87 70 bb e5 19 df 3c fd 60 2e bc 3e b4 3c 3a
       -0.0036701679 0.027234027 -0.010643241 0.0007198489
000270 fc 38 b0 bc 5c 48 e7 bd a2 fd a0 bd f7 12 1e be
       -0.021511547 -0.11293098 -0.078608766 -0.15436922
000280 62 29 39 3d f0 3f 87 bc db 7f c9 bd 88 5c 8a bd
       0.04520548 -0.01650998 -0.098388396 -0.0675593
000290 8e eb c1 bd 24 f0 3e bb 88 10 de bd db 8e 58 3a
       -0.094687566 -0.0029134834 -0.10842997 0.0008261033
0002a0 6b b3 6d bb 90 c4 d7 bd 6d e4 bc bd 84 50 d1 3b
       -0.0036270272 -0.10535538 -0.09223256 0.006387772
0002b0 d2 d9 03 be d1 f5 2f bd 44 b7 ff bd 2d ae 4e bd
       -0.1287606 -0.04295904 -0.12486127 -0.050459076
0002c0 12 00 8e bd 65 14 5f bd 66 3b 06 be 9b d9 d5 bd
       -0.06933607 -0.05446281 -0.13108596 -0.104418956
0002d0 1f 0d 1f bd 98 99 70 bc 86 59 6c 3c 58 4b bc bd
       -0.038830873 -0.014685057 0.014425641 -0.09194058
0002e0 c7 e2 1a bd a0 49 ac bd bd 13 15 bd 52 12 94 bd
       -0.037813928 -0.0841248 -0.036395777 -0.07230057
0002f0 81 8a b4 bc 3f 59 16 3c a2 d6 13 3d 10 a9 41 3d
       -0.0220387 0.009176551 0.03609336 0.04728037
000300 e5 95 5c 3d b9 ca 04 3e f6 96 38 3d 59 0a 81 3d
       0.053853888 0.12967958 0.045065843 0.06300802
000310 9d f8 ce 3b 8a ab 72 3d c9 3d 3b 3c 9c 58 d9 bc
       0.006316258 0.059245624 0.011428305 -0.02653151
000320 86 83 09 bd c2 bf 16 bc 59 ae 31 3d ea 55 2a 3a
       -0.033572696 -0.009200992 0.04337916 0.00064977875
000330 19 3a b2 bc 1a b0 e0 bc b3 67 e6 bd 06 ee 01 be
       -0.021756219 -0.027427722 -0.11250248 -0.12688455
000340 ca 8a 6a bd 4c a0 dd bc e2 d3 13 3d 8a 66 4d bd
       -0.057261266 -0.027053975 0.03609074 -0.050146617
000350 dc 59 e1 bd d3 e8 09 be ce 9f 5a bd ac 74 84 bd
       -0.110034674 -0.13467722 -0.053375058 -0.06467566
000360 0f 69 99 3d ca f3 6c bb 98 c3 11 bd db 8b ec bd
       0.074907415 -0.0036156052 -0.035586923 -0.11550113
000370 33 89 4d bd 79 90 77 be bb ac 2c be 53 79 05 bc
       -0.05017967 -0.24176206 -0.16862766 -0.008146602
000380 ef 17 20 3d 8f a4 44 3b ac f0 c4 bd 04 36 07 bd
       0.039085325 0.003000531 -0.09616217 -0.033010498
000390 b8 bb ee bd 06 df 9e bd 44 90 8c 3d a4 21 ae 3d
       -0.11656898 -0.07757382 0.06863454 0.0850251
0003a0 e9 bb bc bb 75 5b c9 3c 2b c1 8c bd 12 86 a5 3d
       -0.0057597053 0.024579743 -0.06872781 0.080822125
0003b0 9c 4c e8 3c e4 aa 14 3d 42 d8 84 3c b6 04 a1 3c
       0.028356843 0.036295786 0.016216401 0.019655567
0003c0 f8 fa a7 3a cb 49 03 3d eb 20 53 3d 0c d4 47 3d
       0.0012815883 0.032052796 0.051545065 0.048786208
0003d0 d9 ac 02 3d 7b 5b bd 3d f3 2c 18 3d 14 33 f3 3c
       0.03190312 0.09245964 0.037152242 0.029687442
0003e0 c0 24 02 3c ce 8b 0d 3d e8 b8 5d 3d 36 ac c1 3c
       0.007943332 0.034557156 0.05413142 0.023641687
0003f0 48 6a 65 3d fa 0e 08 bd e9 b9 03 bd 9e a1 5e bc
       0.05600956 -0.033217408 -0.03215972 -0.013588337
