model/discriminator_9.pth (torch, 557144 bytes, 5 tensors)

model.0.weight f4 [64, 1, 4, 4]
00000000: e054 1b3e ba1a eebd a309 2dbe 0078 213e
00000010: c480 7c3e 4a7c febd cc82 6dbe e0fc b6bd
00000020: 55aa b63e 309f d63d 1877 78be 2185 173c
00000030: d029 f93c 9718 4b3e 0707 2fbe bcbd 863d
00000040: 9087 aabd d27d 2a3e e209 0d3e e5ba 033e
00000050: 7779 203c 43b0 0abe 16f4 e33b 27f8 2dbe
00000060: 5506 963d fdfe 1abe 486d 043e c464 95bd
00000070: 8c3e 41be d64a 6cbe 56fd 703e 7c64 80be
00000080: 85db 27be c104 5fbb 1c7c 273d f4dc 183e
00000090: 2509 2fbe 8329 75be 8fbc 383e 87ed 733d
000000a0: 6c72 9cbd 7d30 e6bd 78b8 a23d 141f 563e
000000b0: 3bee e23d 617a 81bd 5b6b 2bbe 252b 5ebd
000000c0: 2b52 0ebe bdd0 613e 1f28 e8bd f0b4 8f3e
000000d0: 7ec3 663e 9cf3 3b3e 1cba ed3d b633 693e
000000e0: 54df 8dbe 90a2 1ebe 9545 20be a25a 0fbe
000000f0: 8213 8bbd bb7d d4bd 1823 01be a299 acbb
00000100: a664 5bbe 94a3 2fbd 20e0 29be 35a6 97bd
00000110: 1054 33be d933 c8bd 9c6e 9bbd 2699 253e
00000120: 65b4 1bbe d848 45be 1623 1d3e d30c 5dbe
00000130: 6195 bc3d 0b1f 29be c818 f9bd 08be 083e
00000140: 90a4 56be 47d0 9cbc cdb3 39be 56c4 a2bd
00000150: 7f3e 8c3c 370f 34be abb8 8abe 1aef 97be
00000160: f9ce d9bd f0c1 493e e5d2 a53d c8aa 003e
00000170: 9626 8a3e 7964 5b3e 2884 773e 91b8 3a3e
00000180: 46cc 3dbe 6bad c3bd 8a20 59be 36a6 1b3c
00000190: fc70 333e d9ce cd3d 6791 513e 0572 5ebe
000001a0: 6833 c0bd 1385 2bbe dd20 4e3e 5b8c 0e3e
000001b0: 9dfe 673e 4b8d 26be 010f e9bd 19c9 8fbd
000001c0: 2e7b febd b68a 533e c379 66be e67a 413d
000001d0: ceb2 313e 09bc 2cbe f0e8 babc 4008 383e
000001e0: 121c ccbd 4ddf 3bbe 0e82 7dbe 6c8a 2b3e
000001f0: fa5e f83d c60d 95bd 4bac c5bd d3ba 253e
00000200: acb9 f8bc f925 bbbd 5c44 dabd 500c 10be
00000210: 37bf 1e3e 3e51 ddbb db6f 513c 728d 47be
00000220: 4f06 283e aac4 1f3e ec9e cd3d d480 ea3d
00000230: f785 0cbe de01 8c3e 888d 2cbe 1358 343e
00000240: 97ce d7bc e7ab 4dbc 2483 603e 547e 913d
00000250: ff9c 5dbe 16c0 24be 7d6e 833d 334e 833e
00000260: 5c20 43be f29f 71be 7e6a 3dbe 1f43 863e
00000270: 46c8 12be 0a54 8dbe 9c2a 763e 4a55 d63d
00000280: 0771 b23d 614d 593e 719b 71be 73c4 f53d
00000290: fcf5 d23c bbad 503e ae66 c2bd 5971 02bd
000002a0: 9967 e2bd 1476 25be 4752 063e ecc4 37be
000002b0: ae46 2fbe 571e 633d 2f73 003e 5c0e 17bb
000002c0: fb18 4e3e 10c9 19be 348f f63c bb97 d2bd
000002d0: 4f5b 77be e70e dc3c 37a1 f8bd 8bab 92bd
000002e0: 02cd 243e cccb 893d 8509 0cbe 4395 68bd
000002f0: c27e 6ebe 7477 5dbd 062c d03d 703e 253e
00000300: a4b4 38be 084c be3c ccb2 06be 22a2 babc
00000310: 9a86 e0bd 899e 54be d272 e1bd 621a 04bc
00000320: 00de 6d3e d71a 6bbc 8455 c43d f8c8 453e
00000330: 7281 4a3e 654b 8e3e 05bf 943e a4b0 8abe
00000340: 5bdb 55bc 8ef6 30be c351 a0bc 73e4 f43d
00000350: f696 6d3c 00ba 9f3d fdf5 833e df13 d33d
00000360: 0ee1 a33d 9cc1 103e 5f10 873e 17f6 3d3d
00000370: 03d9 9cbd 844b d8bd 6a32 47be 2f6a 823e
00000380: e6ef 55be 05d5 8d3d c50c 8a3e f79d 053e
00000390: 16ae 3cbb f139 f63d e7e5 093f 161b 0f3e
000003a0: b33b 893e e784 a43e 0402 0d3f 52f9 b33e
000003b0: 5fb4 493e e7c2 b63e 77d0 7d3e 1e24 11be
000003c0: e355 bc3c 590c 27bd 56d9 75be 56f6 9c3d
000003d0: 0c46 0ebe 4e91 a8bd 28ed f5bd 48e0 e6bd
000003e0: 1eb2 cdbd 2f9e 0abe 165d 2ebc ac5a 883d
000003f0: c203 4cbc f377 a3bd 5356 5b3e 3982 683e
0.15169096 -0.116261914 -0.16898207 0.15768433 0.24658495 -0.1242605 -0.23194426 -0.08934951
0.35676828 0.10479581 -0.2426418 0.009248049 0.030415446 0.19833599 -0.17092524 0.06579158
-0.08326638 0.16649559 0.13773301 0.12864263 0.0097945845 -0.13543801 0.0069565875 -0.16989194
0.073254265 -0.15136333 0.12932312 -0.0729461 -0.18871516 -0.23075423 0.2353414 -0.25076663
-0.16392334 -0.0034029933 0.040889844 0.14928037 -0.17093332 -0.23941617 0.1804068 0.059552696
-0.07639012 -0.11239717 0.07945341 0.20910293 0.11080595 -0.0632217 -0.16740172 -0.054240365
-0.13898532 0.22052284 -0.113357775 0.28067732 0.22535512 0.18354648 0.11607763 0.22773632
-0.27709448 -0.154917 -0.15651543 -0.13999417 -0.0679083 -0.10375544 -0.12611043 -0.005267338
-0.21425113 -0.04288061 -0.16589403 -0.07404748 -0.17512536 -0.09775514 -0.075894564 0.16171703
-0.15205534 -0.19266069 0.15345415 -0.21586923 0.09208179 -0.16515748 -0.1216293 0.13353741
-0.20961213 -0.019142283 -0.18134995 -0.07947604 0.017119644 -0.17583929 -0.27094015 -0.29674608
-0.1063518 0.19702888 0.080968656 0.12565148 0.26982564 0.21425046 0.24171507 0.18234469
-0.18534955 -0.09554561 -0.21203819 0.009500077 0.17523569 0.10049219 0.20465623 -0.21723182
-0.09384805 -0.16749983 0.20129724 0.13920729 0.22655721 -0.16264836 -0.11379815 -0.07020778
-0.124258384 0.20658383 -0.22507386 0.047236346 0.17353365 -0.16868605 -0.022816151 0.17971897
-0.099662915 -0.18346901 -0.24756643 0.16752023 0.1212749 -0.07278018 -0.09652003 0.16184549
-0.030361973 -0.09138102 -0.1065757 -0.14067197 0.1550263 -0.0067540696 0.012783016 -0.19487551
0.16408657 0.15602365 0.100400776 0.11450353 -0.13722979 0.27345175 -0.16850865 0.17611723
-0.026343627 -0.012553192 0.21925026 0.07104173 -0.2164192 -0.160889 0.06417558 0.256456
-0.19055313 -0.2359617 -0.18497655 0.26223084 -0.14334211 -0.2760318 0.24039692 0.10465486
0.087129645 0.21220924 -0.23594452 0.1200036 0.02575206 0.20378773 -0.09492241 -0.031846378
-0.11054916 -0.16158324 0.13117324 -0.17946213 -0.17116806 0.055448856 0.12543939 -0.002304933
0.20126717 -0.15018106 0.030097581 -0.102828465 -0.24155925 0.026862575 -0.12140124 -0.071616255
0.1609383 0.06728324 -0.13675506 -0.056782972 -0.23290542 -0.054068998 0.10164647 0.161371
-0.18037659 0.023229614 -0.13154143 -0.02278239 -0.10963173 -0.20763601 -0.11008228 -0.008062931
0.23229218 -0.014349661 0.09586623 0.19314945 0.19775942 0.27791896 0.29051986 -0.2708789
-0.013052787 -0.17281553 -0.019570237 0.11957636 0.014501324 0.077991486 0.25773612 0.103065245
0.0800191 0.14136356 0.26379678 0.046377268 -0.07658579 -0.105612785 -0.19452825 0.25471637
-0.20892295 0.06925396 0.26962867 0.1304854 -0.0028790287 0.1202277 0.5386643 0.13975176
0.2680336 0.32132646 0.550812 0.35151154 0.19697712 0.35695574 0.24786554 -0.14173934
0.022990173 -0.04078326 -0.24008688 0.07664172 -0.13893908 -0.0823084 -0.120081246 -0.11273247
-0.10043739 -0.13536905 -0.010642311 0.06657919 -0.012452068 -0.07981863 0.21419649 0.22705926

model.0.bias f4 [64]
00000000: f1bb 8bbe e991 da3d 4586 013e 6318 11bd
00000010: ec40 4ebe 52e3 52be 4bd0 56bd d9a8 4cbe
00000020: 6b22 4b3e 9753 7f3d b1b5 b53d 42d5 763e
00000030: e580 10be 3a0b 58be e36e 113d da59 bfbd
00000040: d2a2 5cbe 61aa 93bd 33c5 d93d f10a 393e
00000050: cb55 003e 312b 9abd c97e 163e 9866 32be
00000060: bb0e 193e fec7 bfbd fc68 3b3d 36a8 49be
00000070: 9550 d43c eb7e 58bd c137 5c3e 2ad2 d1bd
00000080: 8bfa 51be 24d6 563e 91cd 423e dc3c 833c
00000090: 763b 423e a506 7fbe e563 0a3e 9010 283c
000000a0: 7407 61be 44ee 4fbe f880 1fbd 6fe5 28be
000000b0: 59f8 87be aaea 3c3a 22a4 703e b06a 91bc
000000c0: 7a0b febc 73a4 c83d fbb3 36be 1187 a1bd
000000d0: 3667 88be 7995 3ebe 5c05 203c 4c52 8ebb
000000e0: d66b f13d a84a 90be 2c93 ffbd 531f b33c
000000f0: 94dd c8bd 84d4 1d3e b567 443e 907f 9abd
-0.27291825 0.106723614 0.12648876 -0.035423648 -0.20141953 -0.20594528 -0.052444737 -0.19986285
0.19837348 0.062335577 0.088725455 0.24104789 -0.1411167 -0.21098033 0.03550614 -0.0934331
-0.21546486 -0.072102316 0.10633316 0.1807058 0.12532727 -0.07527769 0.14696802 -0.17421949
0.14947025 -0.09364317 0.045754418 -0.19693074 0.02591733 -0.052855413 0.21505643 -0.10245164
-0.20505731 0.20980126 0.1902373 0.016020231 0.18967995 -0.24904878 0.13514669 0.010257855
-0.219755 -0.20305735 -0.038941354 -0.16493772 -0.26556662 0.00072065985 0.23500112 -0.017751068
-0.031011332 0.09796991 -0.17842095 -0.0788709 -0.26641244 -0.18611707 0.009766903 -0.0043433066
0.11788146 -0.28181958 -0.12479243 0.021865522 -0.09807888 0.154131 0.19180186 -0.07543862

model.2.weight f4 [128, 64, 4, 4]
00000000: 0a62 b63d 3656 c23d 3900 ecbc 018e c7bd
00000010: 8d3b 0b3e 6b53 b93c 7e17 233d 568e 523d
00000020: 6952 ba3d c3fc 3fbd 95a4 953d b653 ef3d
00000030: c68a 943d a7f0 583d 6f94 11bd 38b0 803d
00000040: 278f 47bd 074d 9abc 1ea7 43bd b0b5 8fbd
00000050: d9b4 56bd dbd5 bdbc 346e 28bd e230 873b
00000060: 89a8 37bc a9bf 80bd 6e22 86bc 2479 51bd
00000070: c1ee b8bc fb19 05bd d526 4dbd 16d9 1dbc
00000080: 3cad e0bc f3b5 33bc aa47 ab3c de4d 32bd
00000090: 9a88 c4bc 0d0d 05bd 6ceb 15bd 212b b9bb
000000a0: 09ab 5d3c 95c4 1cbd 01e4 debc eae9 93bc
000000b0: dc05 b1bc 0197 75bc 6e38 8f3c 8177 633c
000000c0: 4df5 a8bc b2c4 02be 0cde bfbc dfb7 3d3d
000000d0: ee5f 2dbc 7561 04bc 52d1 9abc cdcb c7bc
000000e0: 3b57 333b 5090 64bd bd1b 6cbd ef61 3f3c
000000f0: aebf 53bd 170f 6bbd db63 6abc 5caa c9bd
00000100: dc7c 5c3c 3dfc bc3c f662 76bc 8f5e 773b
00000110: 3297 bc3c 98b4 58bc f676 65bb 9782 af3c
00000120: a3fb 64bc 3806 813c af17 473d cf87 e63c
00000130: 853a 343d 650d 3b3d f32b 2a3d e064 5ebc
00000140: fea0 933d 0276 883d 1d59 c83d c8e3 8c3d
00000150: 3426 a63c 1dcd 03be 13cd e33c 44f5 79bd
00000160: 6fb4 afbd 56fe babc ed4f 613c de3d 65bd
00000170: 8fab 20bd 1b34 8f3c 74a3 c7bc bb40 79bd
00000180: ac70 c7bc 1b8d 26bd ecf8 b53c 7516 d6bc
00000190: 5a1f b0bd 6138 48bd b61c 3bbd 11df 71bd
000001a0: 7222 ccbc 36b7 ae3b 0924 053b 430e 17bd
000001b0: 908f 30bd c377 11bb d0e1 1a3c fe15 5f3b
000001c0: 196c 8dbd 9356 8bbb b0bb 55bc 46d3 9a3d
000001d0: f3ad 153d d06c 08bd fafe 54bd 6aa1 183e
000001e0: 850e ee3c 24bc 4dbd b408 ecbc 9f35 7c3d
000001f0: 3731 983b d972 b1b9 b98e 003d 1cc1 3dbd
00000200: 0806 9cbb b3f0 00bc d65a cfbc e78e 0d3b
00000210: 95f5 1abd 1b72 73bd ba4d 78bd 7f0d 92bd
00000220: 0350 19bd eb5d e8bb c023 06bd 79cc 94bd
00000230: 9b6f e7bc 9d19 11bd cae4 45bd 92b8 6fbd
00000240: 4ab7 703c f105 2dbd 1b6d d4bc 10b1 aebc
00000250: 991b ee3c a7fc 8ebc b69d 0dbd ad45 793d
00000260: 2d9f babc c07b 47bc e2dc a63c 3a49 4cbc
00000270: a3ba 42bb 5c81 063d 8014 643c 7c8b 0bbd
00000280: 4479 04bd 6643 1fbc efd9 50bd 03e6 21bc
00000290: 594d 39bd c151 cc3c 6ecc 4b3c eb36 e5bc
000002a0: c1ee b33c c33f 23bd 22df a9bc 999f 1dbd
000002b0: a579 83bc 82e7 24bd 6779 f6bc a02a 39bc
000002c0: 24f6 8dbc ef52 843b 2e55 50bd 7666 feb9
000002d0: f77c 09bd f4bf f4bb 59fe e73b 3ae9 e2bc
000002e0: c839 cbbc 6142 22bd 0e68 e63b 75c2 963c
000002f0: a8be c83c 54dd 6b3c 91b3 f13b c28c 843c
00000300: 4d7d c33d d16b 023e 0988 ac3d bfee 033e
00000310: 6335 393d 5de0 3cbd 7e0c e03c a582 603d
00000320: c656 083d 9501 b73c 924b 2b3c a08e 9f3d
00000330: 4402 39bc dc49 f13c 0732 a73b ef4f bab9
00000340: 1ba5 e03d 9dab 2f3d b288 ae3d 357a de3d
00000350: 2184 733d 2d90 84b8 2fb7 e03c eadb 2e3d
00000360: 7dc5 943d b2fd be3d e947 3e3d dfcd a63d
00000370: 51f9 b13d 03d6 063c 0a0e a5bc c323 893c
00000380: 248d c33d caf0 123d e5ef a83c 9fbe a13c
00000390: 6c48 a13d b539 243d ee80 52bd de94 57bc
000003a0: 3def 943d 6995 943d 7823 a93c c04f fa3b
000003b0: 6b88 9c3d 4f38 71bb ea94 74bc abcb 773d
000003c0: e596 ee3b f6df 8b3d 77a5 e03c f315 bdbb
000003d0: 7aba 53bc 868b 24bc 6629 dd3b cbe2 5f3c
000003e0: 8a7c 053d 4665 e9bc ff06 b73c 2d5d c33c
000003f0: aab4 843c 7abc 5e3b 169a 4e3d 7ab9 983c
0.08905418 0.094891 -0.0288087 -0.09743882 0.13596936 0.022622785 0.039817326 0.051405273
0.0909775 -0.04687191 0.07306782 0.116858885 0.072530314 0.05296388 -0.035541948 0.06283611
-0.048720505 -0.018835558 -0.047766797 -0.07017076 -0.052418564 -0.023173263 -0.041120723 0.0041257003
-0.0112096155 -0.06286556 -0.01637384 -0.05114092 -0.022574784 -0.03249548 -0.05008586 -0.009634277
-0.027426355 -0.010968673 0.020908196 -0.04353129 -0.023990918 -0.03248315 -0.03660147 -0.0056508933
0.0135295475 -0.038273413 -0.02720833 -0.018055875 -0.02160924 -0.014989615 0.017482962 0.013883472
-0.020624781 -0.12770346 -0.02342131 0.04631793 -0.010581953 -0.008079876 -0.01889864 -0.024389172
0.0027365226 -0.05580169 -0.05764364 0.011681064 -0.051696472 -0.057387438 -0.014306034 -0.098469466
0.013457503 0.023069495 -0.015038243 0.003774557 0.023021314 -0.013226651 -0.0035013533 0.021424575
-0.0139760105 0.015750036 0.04860657 0.02814093 0.04400112 0.04566707 0.04154582 -0.013573855
0.07208441 0.06663133 0.09782622 0.06879383 0.020281889 -0.12871213 0.027807748 -0.06102492
-0.08579337 -0.022826355 0.013751966 -0.055967204 -0.03922611 0.0174809 -0.024369933 -0.060852747
-0.024345718 -0.040661912 0.022213422 -0.026133755 -0.0859973 -0.048881892 -0.045681678 -0.059050623
-0.024918769 0.005331899 0.0020315668 -0.036878835 -0.043105662 -0.0022196628 0.009453252 0.0034040208
-0.069053836 -0.004252264 -0.0130452365 0.075598285 0.036542844 -0.033306897 -0.052000977 0.14905325
0.029059658 -0.050228253 -0.028812744 0.061574575 0.0046445387 -0.0003384564 0.03138611 -0.04632674
-0.004761461 -0.007869887 -0.025311869 0.002160007 -0.03783186 -0.05943499 -0.060621 -0.071314804
-0.03742982 -0.007091274 -0.032748938 -0.072655626 -0.02825146 -0.035424817 -0.048313893 -0.05852563
0.014692137 -0.042241994 -0.025930932 -0.021324664 0.029065894 -0.017454458 -0.034574233 0.060857464
-0.022780979 -0.0121755 0.020368997 -0.01246863 -0.0029713295 0.03283821 0.013920903 -0.03406857
-0.03234221 -0.009720659 -0.050989088 -0.009881499 -0.04523978 0.024941327 0.012438877 -0.027980288
0.021964433 -0.03985573 -0.02073628 -0.038482282 -0.016049216 -0.040259846 -0.030087186 -0.0113016665
-0.017329283 0.004038207 -0.050862484 -0.00048522995 -0.03356644 -0.0074691717 0.007079881 -0.027699102
-0.024807826 -0.039614085 0.0070314473 0.018403271 0.024504974 0.01439603 0.0073761423 0.0161804
0.095453836 0.12736441 0.08424384 0.12884043 0.04521693 -0.046112407 0.027349707 0.054812092
0.03328588 0.022339622 0.010455029 0.077908754 -0.011292044 0.029454164 0.0051023993 -0.0003553624
0.10968991 0.042888273 0.08522166 0.10863153 0.05945218 -6.321105e-05 0.027431099 0.042690195
0.072642304 0.09325732 0.046455298 0.081447355 0.086901315 0.008229735 -0.020148296 0.016740685
0.09548405 0.035874166 0.020622203 0.019744216 0.078751415 0.040094096 -0.05139249 -0.013158051
0.072721936 0.0725506 0.020646796 0.0076389015 0.07643207 -0.0036807244 -0.014928082 0.060496967
0.0072811716 0.068298265 0.02742265 -0.005770439 -0.012922877 -0.010043031 0.00674932 0.0136649115
0.032589473 -0.028490674 0.022342203 0.02384814 0.016199429 0.0033986853 0.050439917 0.01864313

model.2.bias f4 [128]
00000000: 3728 4cbd 41fd a73c c25e 93bc 9684 9f3c
00000010: 0ee8 03bc f32b 1d3d 4b84 6e3a 3f05 8a3a
00000020: c268 02bd 78d8 083d 3e71 23bb abbc 183c
00000030: afa3 1dbd 789c 03bd ea8a 6fbd 4e09 17bc
00000040: 8e26 c83c 57ea 1cbd e78c dbbc cedb ce3b
00000050: d3bc 85bc dec7 49bd c9f2 85bc 2740 ac3c
00000060: e61d 30bd 5412 87bc 7c8c 3b3d 574d 093c
00000070: 7f81 1cbd 6eee df3b b5a2 57bd 3854 4abc
00000080: 2c4a 1b3d 8780 7e3c 56b3 5a3c 4c48 e03c
00000090: a928 a1bc 5e83 33bb 4fc2 01bd 9839 e23a
000000a0: cf3c 90bc ca2c 97bc 5ada 37bb e115 453a
000000b0: 48c7 973c e3b6 20bc c97d 243c 678c 82bc
000000c0: a66a 6c3d 865c acbc ed31 253c d7fc 343b
000000d0: 3d5c d63b 5906 343d 5e98 2bbd 8ee2 36bd
000000e0: 5931 eebb 2eb1 c6bc fdbc 8ebc 4fdb 8fba
000000f0: 0849 433d f2e4 c1bc 51fe 0ebd 5509 62bd
00000100: 4280 90bc 929c 0ebd e070 033d 589a 28bd
00000110: bd60 0d3c 4026 283c bf5f 453d 7fe8 743c
00000120: 2cd8 c2bb e774 b0bb fb56 e5ba 9675 2fbd
00000130: c38d 873c f4ab 7ebc 1796 083c 0d30 f4bc
00000140: f1db 99bd e4c8 2dbd 41f2 b03c 6596 0fba
00000150: 92b3 77bc e787 82bd d8ee 29bd 91df fe3c
00000160: b30b fcbc bfe7 0d3d a937 bd3b c2ad 333d
00000170: 1e8e 7c3c 5631 253a ec51 08bd 254a 2fbd
00000180: b302 133c 5104 3fbd bc12 383d 36a1 37bd
00000190: 2684 11bd 0e45 93bc 8064 443d 1712 37bc
000001a0: ad26 c93c c809 283d 7057 48bc d064 af3c
000001b0: 1e85 b1bc 5aad 1dbd 4b7b 30bd 701b ed3c
000001c0: b82c f3bc a861 243d 0026 5f3d 5e4d 10bd
000001d0: bcfe 143d 71d4 36bd 95da 1f3c 9997 0b3d
000001e0: ef7c 393c 503e 8a3c 295f 1dbd e0fb 64bd
000001f0: 40c8 973c 34ac 4fbc badb 083d 6540 42bd
-0.04984304 0.020506503 -0.01798952 0.019472402 -0.008050932 0.03837199 0.00090986927 0.0010530128
-0.031838186 0.033409566 -0.0024939324 0.009322326 -0.03848618 -0.032131642 -0.05848209 -0.009218527
0.024432447 -0.03830942 -0.026800586 0.006312824 -0.01632539 -0.049262874 -0.01635112 0.021026684
-0.042997263 -0.016488232 0.045788273 0.008380256 -0.038209435 0.006833843 -0.052645404 -0.012349181
0.037912533 0.015533573 0.013348421 0.027378224 -0.019672709 -0.0027391533 -0.031679448 0.0017259596
-0.01760712 -0.018453974 -0.0028053732 0.0007518214 0.018527642 -0.009809229 0.010039755 -0.01593609
0.057718895 -0.021040212 0.010082704 0.0027616525 0.0065417574 0.043951366 -0.041893356 -0.044649653
-0.0072690663 -0.024254408 -0.017424101 -0.0010975393 0.04767707 -0.02366874 -0.034910504 -0.05518468
-0.017639283 -0.034817286 0.032090068 -0.04116282 0.008629021 0.010263026 0.048187014 0.0149480095
-0.00594618 -0.0053850296 -0.0017497236 -0.042836748 0.01654709 -0.0155439265 0.008336565 -0.029808069
-0.075126536 -0.042427912 0.02159989 -0.00054774276 -0.0151184965 -0.063735776 -0.041487545 0.031112464
-0.030767297 0.03464484 0.0057744575 0.04386688 0.015414743 0.0006301602 -0.03328125 -0.04279532
0.0089728115 -0.046634976 0.04493974 -0.044831477 -0.035526417 -0.017977264 0.047947407 -0.011173747
0.024554575 0.041024953 -0.012227878 0.021410376 -0.02166992 -0.0384954 -0.04308633 0.028943747
-0.02968441 0.040132195 0.0544796 -0.035230033 0.036375746 -0.044636194 0.009756704 0.03408012
0.01132129 0.016875416 -0.03842083 -0.05590427 0.018528104 -0.012675334 0.033412673 -0.047424693

model.5.weight f4 [1, 6272]
00000000: 18ba 9bbc 86c1 923c d2e7 6ebc 3840 fabc
00000010: 86ed 70bc 7988 08bc 0f5c 813b fe2e 9b3a
00000020: 0461 b2bc d862 1f3d 6a0a 323d c441 58bd
00000030: d2a5 ef3c f6fd d63b 4a54 65bb f13b 093d
00000040: b507 f13c 3da2 3a3d b131 5a3d 8cc5 6b3d
00000050: d7cb 953c 5973 513a 6879 063d c84a 5f3c
00000060: 4597 dc3d 149a bc3d 7111 f83d 38ea 873c
00000070: 3766 c03b 2ff2 103d ba8c 923d 8952 1c3d
00000080: 111a f43d 7e1b be3d 0d9b 123d 7795 95bb
00000090: c21d c53c b05c d13d de36 d93d 63a8 ac3d
000000a0: c2d7 4d3d 79fb 623c c7c8 a63b 3415 e63a
000000b0: 84ac 57bd 2ad2 1abd 0d92 b3bc dd02 ee3c
000000c0: 22df 043c 335b f23a 1bd5 5c3a 2cb7 22bd
000000d0: 3dc5 30bd 0ac0 3abd bde8 35bc bd4f 433d
000000e0: 3432 a5bc 4293 9dba d84d 8fbd a32e 7dbd
000000f0: 7e3c 77bd 663d c9bd 4a05 3fbc 6108 633b
00000100: f6e1 d9bc 8436 28bd 1d4d 3abd f62d 5cbd
00000110: 1964 e9bd e403 09bc 5596 8cbc 30c5 86bb
00000120: c05e febc 7181 75bd c557 eabd 5a83 01be
00000130: 0269 203c a8a8 8abc a4fb e3ba 9405 cbbc
00000140: 0ade 78bd 8031 e3bd 841b 20be 6af4 2d3c
00000150: dd18 44bc d458 3abc 8c96 d8bb 973d 3bbd
00000160: d736 b2bd 918a a3bd 2924 3b3c 04ca be3c
00000170: 2bf9 093d 85ca cf3c 2887 583c e72c 78bd
00000180: a05e c8bc 4573 0cbb 2932 9f3c 6dcc 013d
00000190: 33b2 78bb 246a 4e3d 697a 683d 73bd 1f3d
000001a0: 4e5b 02bc eb2a 053d 4860 9e3c 6acc c3bc
000001b0: b40e d2bd 7466 be3c 2de8 513c 6a34 893c
000001c0: f904 b13c 0bbd 01bc 76ad c4bd 06d8 c5bd
000001d0: dc68 8abc 8bd1 08bd 4356 133c d7b2 423c
000001e0: ad93 d6bc 1903 c4bd 4d8c b5bd f24b 5f3d
000001f0: 5a91 e4bc c8ac f23c a9e1 9f3c 6150 0fbd
00000200: a799 dbbd fa7b 0dbe 0b8d e43c acbe 3dbc
00000210: 8029 a13c cfbc 0f3b d3e2 0abd 1c2d 44be
00000220: 01fd bebd 6719 5cbc b69f c0bc c747 543c
00000230: 3426 113d 2e3c 873b 4808 8ebc 825b 82bc
00000240: d17b 7abb 2aef c43c 36d3 573d 1ca2 003d
00000250: e124 363d c0cf 3f3c a784 4e3c 73f7 813c
00000260: 0047 ae3c 4dbf 103d 62cb ad3c 70f3 983c
00000270: dbe5 1abd af7b 42bd a841 2ebd 5973 75bd
00000280: c5bd 163d 8b84 f5bb 055f 37bd ede8 17bd
00000290: 440a c0bd f6c8 55bd 7018 3ebd d0dc c3ba
000002a0: 1c09 753c 3b01 60bd 2a96 59bd 179b 5abd
000002b0: 2bca 91bd 715e 3dbd dc02 84bc 0fbe 2ebc
000002c0: 034b 06bd 05e3 c6bd d3ae 03be 6c34 38bd
000002d0: f4a8 4fbd d549 11bc 1f5c 9a3b d19a 37bd
000002e0: 43f9 a3bd 9215 9fbd 0706 92bd 7c8d 32bd
000002f0: 6f7b 0f3a 6c9a 073c 4bb2 49bc fd5d 2a3d
00000300: 16b7 a73c bce3 af3c 73e2 4cbc 15be 303d
00000310: 013e 063a 224b ce3c 9534 7a3c d0c1 913a
00000320: 7fa4 eebb bcc4 383c 8f59 893c 7d78 983c
00000330: 1d89 08bb b759 ecbc 5572 0fbe 90ea d7bd
00000340: 71e2 48bd 5c1f 9b3c e3b2 e73c d31e 373c
00000350: 3cbb d7bd 88a8 0ebe 3c96 9cbd 7936 50bd
00000360: 4683 d63c 97ef a13c 2eee acbc 0f6e 08bd
00000370: 32ea 87bd 91a7 14be d20d cabc 5000 263d
00000380: dcf3 ec3c 53f2 b3bc 8118 c8bd feac 4dbd
00000390: e4c5 febd d00a 8ebd cb1d 463c 1a02 c53c
000003a0: 47e7 953c b11c f4bc 79d5 02be 32c5 593c
000003b0: ca01 073d 5f17 b33c ef31 233c 4522 0e3c
000003c0: c9f7 97bb e092 623c e137 0a3d 6db0 113d
000003d0: c2c6 e73c 816f 0e3d 216c 033d 27c5 af3c
000003e0: 42fa 48ba 0de0 fc3b 4d1f 0b3d 088e c43c
000003f0: 12a7 adbb 6883 86bb 6f27 20bd 85f4 36bd
-0.019009635 0.017914545 -0.014581637 -0.0305482 -0.0147050675 -0.008333319 0.003947742 0.0011839566
-0.021774776 0.038912624 0.043466963 -0.052797094 0.029253874 0.006561036 -0.0034992867 0.03350443
0.02942262 0.04556488 0.053270046 0.057561442 0.018285675 0.00079899054 0.032830626 0.013628669
0.1077104 0.092090756 0.12112702 0.016591176 0.00587156 0.035387214 0.07155748 0.03816465
0.11919034 0.092825875 0.0357924 -0.0045649367 0.024062041 0.10222757 0.10606168 0.08430555
0.05025459 0.013853901 0.0050898525 0.0017553926 -0.052654758 -0.037798084 -0.021920228 0.0290541
0.00810984 0.0018490314 0.0008424089 -0.039725468 -0.04315685 -0.0455933 -0.011102852 0.047683466
-0.02016554 -0.0012022036 -0.069972694 -0.061812054 -0.060360424 -0.09826164 -0.011658976 0.0034642445
-0.026597004 -0.041067615 -0.045483697 -0.05375477 -0.11396045 -0.008362744 -0.017161528 -0.004112862
-0.03105104 -0.059937898 -0.11442522 -0.12647763 0.009790661 -0.016926125 -0.001739372 -0.024782933
-0.060758628 -0.11093426 -0.15635496 0.010617355 -0.0119688185 -0.011373717 -0.0066097435 -0.045713034
-0.08701866 -0.07985414 0.0114221955 0.023289688 0.03368489 0.025365124 0.0132158175 -0.060589697
-0.024459183 -0.002143101 0.019433098 0.031689096 -0.0037948012 0.050394192 0.056757364 0.038999032
-0.007956339 0.032511633 0.01933302 -0.023901183 -0.10256711 0.023242213 0.012811703 0.016748626
0.021608816 -0.0079186065 -0.096033975 -0.09660344 -0.016895704 -0.03340296 0.008992734 0.011883459
-0.026193464 -0.09570903 -0.08864651 0.054515786 -0.02790134 0.029623404 0.019516783 -0.034988765
-0.10722666 -0.13816825 0.027899286 -0.011581104 0.019673109 0.0021932607 -0.033907723 -0.19157833
-0.093256004 -0.013433791 -0.023513656 0.012956566 0.035436824 0.004127047 -0.017337933 -0.015912775
-0.0038220773 0.024039824 0.05269166 0.0314046 0.044468764 0.011707246 0.012604869 0.015865063
0.02127409 0.03533869 0.021215145 0.018670768 -0.037816864 -0.047481235 -0.042543083 -0.059924457
0.036802072 -0.007492607 -0.044768352 -0.03708737 -0.09376958 -0.052193604 -0.046410024 -0.0014943127
0.014955785 -0.054688673 -0.053121723 -0.05337056 -0.071186386 -0.046232644 -0.016114645 -0.010665431
-0.03278638 -0.09711269 -0.12859659 -0.04497187 -0.050698236 -0.008867701 0.0047106887 -0.04482538
-0.08006527 -0.07767786 -0.07130056 -0.04359196 0.000547341 0.008276563 -0.012310575 0.04159354
0.020473044 0.021470897 -0.012505162 0.043150026 0.00051209336 0.02518231 0.015271326 0.0011120383
-0.007282793 0.011277374 0.016766338 0.01861214 -0.002083368 -0.028851373 -0.14008458 -0.10542786
-0.049044076 0.018935852 0.028283542 0.011176783 -0.10533759 -0.13931477 -0.076458424 -0.0508332
0.026185643 0.019767566 -0.021109667 -0.033308085 -0.06636466 -0.14517047 -0.024664793 0.04052764
0.028924875 -0.021966135 -0.09770299 -0.050213806 -0.124400884 -0.06935656 0.012092064 0.024048854
0.018298758 -0.029798837 -0.12776746 0.013291644 0.03296069 0.02186173 0.009960636 0.008675163
-0.0046376926 0.013828963 0.033744697 0.035568643 0.028293017 0.034774307 0.03208554 0.021456314
-0.0007666686 0.0077171386 0.033965398 0.023993507 -0.0052994573 -0.0041050203 -0.039100107 -0.044666786
