model/discriminator_19.pth (torch, 557154 bytes, 5 tensors)

model.0.weight f4 [64, 1, 4, 4]
0	0x3e4c50ca	0.19952694
1	0xbe018f86	-0.12652406
2	0xbe324d72	-0.17412356
3	0x3e2c147a	0.16804686
4	0x3e92f128	0.28699613
5	0xbe1227a3	-0.14272933
6	0xbe756d01	-0.23967363
7	0xbd7c629a	-0.06161747
8	0x3ec39297	0.38197777
9	0x3dba0c18	0.09084338
10	0xbe7b27b7	-0.24526869
11	0x3ca7e74a	0.02049603
12	0x3c412010	0.011787429
13	0x3e32ea86	0.17472276
14	0xbe20a0bd	-0.15686317
15	0x3d6c1fa2	0.057647355
16	0xbd9bf411	-0.07614911
17	0x3e2980b1	0.16552998
18	0x3df87ce6	0.121331975
19	0x3dfd9fe1	0.1238401
20	0x3c8e5bb0	0.017377704
21	0xbe05a71e	-0.13052031
22	0x3ca50b2b	0.020146927
23	0xbe35618f	-0.17712997
24	0x3da6cef4	0.08144942
25	0xbe129abc	-0.14316839
26	0x3df7a5a5	0.12092141
27	0xbdb4c7f6	-0.08827202
28	0xbe3e7fcd	-0.1860344
29	0xbe735ae7	-0.23765145
30	0x3e6aebcc	0.22941512
31	0xbe87a7ac	-0.2649511
32	0xbe18ced9	-0.14922656
33	0xbb1d5347	-0.0024005936
34	0x3d3c81c0	0.046022177
35	0x3e0e9cd8	0.13927019
36	0xbe1893fe	-0.14900205
37	0xbe807c4d	-0.25094834
38	0x3e40ef60	0.18841314
39	0x3d8470c5	0.064668216
40	0xbda3d0a6	-0.07998781
41	0xbe0cb674	-0.13741475
42	0x3dac1d1d	0.084039904
43	0x3e611527	0.21980725
44	0x3dedf5ac	0.11619124
45	0xbd7fa212	-0.06241042
46	0xbe183518	-0.14864004
47	0xbd35872d	-0.044318367
48	0xbe11d2f1	-0.14240624
49	0x3e7eb6fd	0.24874492
50	0xbdc016a3	-0.093793176
51	0x3e99adbd	0.30015364
52	0x3e61be0d	0.22045155
53	0x3e327881	0.17428781
54	0x3de6433c	0.11243293
55	0x3e6b7b32	0.22996214
56	0xbe8db89f	-0.27679917
57	0xbe29be20	-0.16576433
58	0xbe19a66f	-0.15004896
59	0xbe0e1f1a	-0.13879052
60	0xbd9b2cc4	-0.07576898
61	0xbdf50c68	-0.11965257
62	0xbe162763	-0.14663462
63	0xbc349f6d	-0.011024338
64	0xbe6314b9	-0.22175874
65	0xbd18384a	-0.037163056
66	0xbe25cb8f	-0.16190933
67	0xbd8af481	-0.06784917
68	0xbe324c5e	-0.17411944
69	0xbdb84f85	-0.08999542
70	0xbd91d9db	-0.07121631
71	0x3e27ac23	0.16374259
72	0xbe1ac365	-0.151136
73	0xbe3d0598	-0.18459165
74	0x3e263025	0.16229303
75	0xbe50c882	-0.20388988
76	0x3db8a1b7	0.0901522
77	0xbe2832a5	-0.1642557
78	0xbdeeaf5a	-0.116545394
79	0x3e0ab81d	0.13546796
80	0xbe706895	-0.23477395
81	0xbd4e0e62	-0.050306685
82	0xbe2bb97e	-0.16769978
83	0xbd86d40e	-0.06583415
84	0xbd10086e	-0.03516429
85	0xbe2bc3e8	-0.16773951
86	0xbe93718e	-0.28797573
87	0xbea4af24	-0.32164872
88	0xbe3ddff0	-0.18542457
89	0x3e2ce143	0.16882806
90	0x3d7ca3e5	0.06167974
91	0x3d9fd686	0.07804589
92	0x3ea07f24	0.31347
93	0x3e81ff22	0.25389963
94	0x3e8c2c0f	0.27377364
95	0x3e36ee11	0.17864253
96	0xbe3449c1	-0.1760626
97	0xbd3f562f	-0.04671305
98	0xbe576c1a	-0.21037331
99	0x3d58e19d	0.052949537
100	0x3e6194a4	0.22029358
101	0x3dd3b818	0.103378475
102	0x3e660d98	0.22466123
103	0xbe64640c	-0.2230379
104	0xbe2e54e8	-0.17024577
105	0xbe5fdbee	-0.2186124
106	0x3e3d8115	0.18506272
107	0x3df9ccb7	0.121972494
108	0x3e3ad1b4	0.18244058
109	0xbe2235c2	-0.1584082
110	0xbde89733	-0.11356964
111	0xbd86aaf1	-0.06575573
112	0xbe008ced	-0.12553759
113	0x3e590d4a	0.21196476
114	0xbe4d3eca	-0.20043483
115	0x3cc716eb	0.02430292
116	0x3e342382	0.1759167
117	0xbe2d154f	-0.1690266
118	0xbd53312e	-0.051560573
119	0x3e149279	0.14509
120	0xbd9e6ca2	-0.07735564
121	0xbe40745c	-0.18794388
122	0xbe9d23d5	-0.306914
123	0x3e54460c	0.20729846
124	0x3e19ba76	0.15012535
125	0xbd899b59	-0.06719083
126	0xbdd6c296	-0.10486333
127	0x3e71a50e	0.2359812
128	0xbd1d77de	-0.038444392
129	0xbdb5756d	-0.08860288
130	0xbe0264c7	-0.12733756
131	0xbe16399b	-0.14670412
132	0x3e29aaf8	0.16569126
133	0xbc8cf543	-0.017206794
134	0x3c234306	0.00996471
135	0xbe514afe	-0.20438763
136	0x3e1c96c8	0.15291893
137	0x3e37ff89	0.17968573
138	0x3dd8430e	0.10559665
139	0x3e1afbed	0.15135165
140	0xbe124869	-0.14285435
141	0x3e96af47	0.294306
142	0xbe08cf53	-0.13360338
143	0x3e31dd5f	0.17369603
144	0xbc77c1f0	-0.015121922
145	0x3c6fabb2	0.014628338
146	0x3e898a1e	0.26863188
147	0x3dcffcce	0.101556405
148	0xbe5f13df	-0.21784924
149	0xbe32e2cc	-0.17469329
150	0x3dc6fa68	0.0971573
151	0x3e81bd67	0.25339815
152	0xbe0de26e	-0.13855907
153	0xbe77faf8	-0.2421683
154	0xbe329ab0	-0.17441821
155	0x3e8cb5c4	0.27482426
156	0xbdd1b784	-0.10240081
157	0xbea25ad3	-0.31709918
158	0x3e6fdf1a	0.2342495
159	0x3dcef7d7	0.101058654
160	0x3dc1c344	0.09461072
161	0x3e67489a	0.22586289
162	0xbe6b77bb	-0.22994892
163	0x3e00e834	0.12588578
164	0x3c6baf6a	0.014385084
165	0x3e57e8ea	0.21084943
166	0xbdb49bd8	-0.08818787
167	0xbccb8e07	-0.024847997
168	0xbdc8eac4	-0.09810403
169	0xbe26e18a	-0.16296974
170	0x3e0b04bd	0.13576026
171	0xbe411ff8	-0.18859851
172	0xbe2fbff3	-0.17163067
173	0x3d3768b4	0.044777587
174	0x3dd05f0f	0.10174381
175	0x3c8ef752	0.017451916
176	0x3e5def39	0.21673287
177	0xbe16df14	-0.14733535
178	0x3d06ce0a	0.032911338
179	0xbdd37c8a	-0.10326488
180	0xbe7407ec	-0.23831147
181	0x3cde9bb8	0.027173862
182	0xbde9705a	-0.113983825
183	0xbd903d52	-0.07042946
184	0x3e26fa6a	0.16306463
185	0x3d9c2c79	0.0762567
186	0xbdfb7129	-0.12277443
187	0xbd5621dd	-0.05227839
188	0xbe64fab1	-0.22361256
189	0xbd1f8d90	-0.038953364
190	0x3df19511	0.1179601
191	0x3e305ea5	0.17223604
192	0xbe191b1b	-0.14951746
193	0x3d2a2dae	0.04154747
194	0xbe055dff	-0.13024138
195	0xbcfb8950	-0.030705124
196	0xbdbb9e8a	-0.09161098
197	0xbe6d39ae	-0.23166534
198	0xbe01588c	-0.12631434
199	0xbb20913c	-0.002450063
200	0x3e8bd5c2	0.27311522
201	0xbcacad32	-0.02107868
202	0x3dbea8e0	0.09309554
203	0x3e547fb0	0.20751834
204	0x3e1f6f20	0.15569735
205	0x3e5f243f	0.2179117
206	0x3e955a77	0.29170582
207	0xbea9a0d5	-0.33130518
208	0xbc32f06a	-0.010921577
209	0xbe58a44a	-0.21156421
210	0xbdc73f62	-0.09728886
211	0x3ddbd42b	0.10733827
212	0x3d191d04	0.037381187
213	0x3d897b4d	0.06712971
214	0x3e81f954	0.25385535
215	0x3d651992	0.05593259
216	0x3e0d3f92	0.13793781
217	0x3e2b74aa	0.16743723
218	0x3e921c15	0.2853705
219	0xbc0a8234	-0.008453894
220	0xbd97cad0	-0.0741173
221	0xbe061ede	-0.13097712
222	0xbe8f41d4	-0.2797991
223	0x3e554456	0.2082685
224	0xbe55265a	-0.20815411
225	0x3d4e7e9d	0.050413717
226	0x3e57530c	0.21027774
227	0x3db5a9c6	0.08870272
228	0xbc8782cd	-0.016541863
229	0x3e11a435	0.14222796
230	0x3f088375	0.5332559
231	0x3de26f23	0.11056354
232	0x3e6c78c9	0.23092951
233	0x3ebdaba4	0.37045014
234	0x3f22ad71	0.635459
235	0x3ec69a7d	0.3878974
236	0x3e1fe573	0.15614872
237	0x3ec2d1e8	0.3805077
238	0x3eab032e	0.33400863
239	0xbde1f604	-0.11033252
240	0x3ce29ad6	0.027661722
241	0xbd278f2a	-0.040908016
242	0xbe7a22c7	-0.24427329
243	0x3da4b8f5	0.0804309
244	0xbe093c1d	-0.13401838
245	0xbdac638d	-0.08417425
246	0xbdff2ce4	-0.12459734
247	0xbdf01935	-0.11723558
248	0xbdc72393	-0.09723582
249	0xbe1043ab	-0.14088313
250	0xbc537692	-0.012906687
251	0x3d7cc6b9	0.061712954
252	0xbc1fd4c6	-0.009755319
253	0xbdb5fcf4	-0.088861376
254	0x3e59fa97	0.21286999
255	0x3e5efd53	0.21776323

model.0.bias f4 [64]
0	0xbe8b9750	-0.2726388
1	0x3de29676	0.110638544
2	0x3df2e298	0.118596256
3	0xbd03fc18	-0.032222837
4	0xbe5d9630	-0.21639323
5	0xbe60ea47	-0.2196437
6	0xbdb0dcd5	-0.0863587
7	0xbe3ec50c	-0.18629855
8	0x3e56fdf4	0.20995313
9	0xb95ab785	-0.00020858466
10	0x3dae49d0	0.08510172
11	0x3e73467c	0.23757356
12	0xbe1239d0	-0.14279866
13	0xbe451da5	-0.1924959
14	0x3d020466	0.031742476
15	0xbdcace33	-0.09902611
16	0xbe64869b	-0.22316973
17	0xbd989dda	-0.07451983
18	0x3dbeb884	0.09312537
19	0x3e2d6683	0.16933636
20	0x3dd4db74	0.1039342
21	0xbda0d7c8	-0.07853657
22	0x3e16b123	0.1471601
23	0xbe3ccfa2	-0.1843858
24	0x3dce67b5	0.10078374
25	0xbdc0b240	-0.094089985
26	0x3cdb8084	0.02679468
27	0xbe61dee2	-0.2205768
28	0x3cdeed26	0.02721269
29	0xbd991761	-0.07475162
30	0x3e62a60e	0.22133657
31	0xbdc99ab8	-0.098439634
32	0xbe5c66ee	-0.2152364
33	0x3e4072ae	0.18793747
34	0x3e3a6d7f	0.18205832
35	0xbc7a6c2b	-0.015284578
36	0x3e4418f4	0.19150144
37	0xbe874fb8	-0.26428008
38	0x3e0b8c37	0.13627706
39	0x3c7fceeb	0.015613298
40	0xbe687567	-0.22701035
41	0xbe458214	-0.19287902
42	0xbd70d052	-0.05879242
43	0xbe338804	-0.17532355
44	0xbe8edbbd	-0.27902022
45	0xba255a95	-0.0006307748
46	0x3e68a951	0.22720839
47	0xbd07d1d5	-0.033159096
48	0xbcd1dd06	-0.025618088
49	0x3db8e69a	0.09028359
50	0xbe2d8991	-0.16947009
51	0xbdb666c7	-0.08906322
52	0xbe8d16e8	-0.2755654
53	0xbe386a08	-0.18009198
54	0xbc80599a	-0.015667725
55	0xbcd151c0	-0.025551677
56	0x3dec2cc1	0.11531974
57	0xbe9340e1	-0.28760436
58	0xbe00a95f	-0.1256461
59	0x3c3fe1d5	0.011711557
60	0xbddeb91b	-0.1087515
61	0x3e049954	0.12949115
62	0x3e4aa863	0.19790797
63	0xbdc456fb	-0.09586903

model.2.weight f4 [128, 64, 4, 4]
0	0x3e232bce	0.15934679
1	0x3daaa56b	0.08332332
2	0xbb29bfcf	-0.002590168
3	0xbc5127bb	-0.01276582
4	0x3e46e222	0.194222
5	0x3d617ccc	0.055050656
6	0x3d3193d8	0.043353885
7	0x3de5af0c	0.11215028
8	0x3e165c51	0.14683653
9	0xbd278ebd	-0.04090761
10	0x3daeec06	0.08541112
11	0x3e2acc8e	0.16679594
12	0x3dc2d489	0.09513194
13	0x3d0fb054	0.03508027
14	0xbd039bc7	-0.032130983
15	0x3d89d8c2	0.067307964
16	0xbd73f1b8	-0.059556693
17	0xbc931dd6	-0.017958563
18	0xbd251928	-0.040307194
19	0xbd953006	-0.0728455
20	0xbd7d9535	-0.061909873
21	0xbd1222d7	-0.035677757
22	0xbd3e7c6c	-0.046505377
23	0xbbf8b70d	-0.0075901807
24	0xbc4b920c	-0.012424957
25	0xbd7d10e0	-0.06178367
26	0xbc8ae49f	-0.016954718
27	0xbd654b0a	-0.055979766
28	0xbc5af914	-0.013365049
29	0xbcb282a6	-0.021790814
30	0xbd54ce73	-0.051954698
31	0xbc8324cf	-0.016008763
32	0xbd2ac1ca	-0.041688718
33	0xbc94cf51	-0.018165262
34	0x3c97106b	0.018440446
35	0xbd353475	-0.04423948
36	0xbd1d6b2b	-0.03843228
37	0xbd51a7a1	-0.051185254
38	0xbd0d62d5	-0.03451808
39	0xbb299bc5	-0.00258802
40	0x3c920ace	0.017827418
41	0xbd8517a8	-0.06498653
42	0xbcaf21b1	-0.02137837
43	0xbc580663	-0.013185116
44	0xbc64f546	-0.013974493
45	0xbc32cd44	-0.010913197
46	0x3c7ae5d3	0.015313583
47	0x3cf3f533	0.029780006
48	0xbb4f7333	-0.0031654357
49	0xbd961c5b	-0.07329627
50	0xbd3eb3ff	-0.046558376
51	0xbcb6b0c4	-0.022301085
52	0xbc6414d3	-0.0139209805
53	0xbc905a1e	-0.017621096
54	0xbd62989d	-0.055321325
55	0xbda9c020	-0.08288598
56	0x3ccdeda4	0.02513773
57	0xbd17a984	-0.037026897
58	0xbd3356a1	-0.043783788
59	0x3d1c100a	0.038101234
60	0xbd45219d	-0.04812776
61	0xbd8cc695	-0.06873814
62	0xbd01ce3b	-0.031690817
63	0xbdc06078	-0.093934
64	0x3c24c10c	0.010055792
65	0x3cd1a2a2	0.025590245
66	0xbcbead13	-0.023275888
67	0x3c4a89fd	0.0123620005
68	0x3cc88f7a	0.024482477
69	0xbca00d8b	-0.019537708
70	0x3afca095	0.0019273931
71	0x3cc120cf	0.023575215
72	0xbc9b4c29	-0.018957214
73	0x3c3897cc	0.01126666
74	0x3d557c15	0.052120287
75	0x3cd3e102	0.025864128
76	0x3d53460b	0.05158047
77	0x3d5eaa42	0.05436159
78	0x3d34bb43	0.0441239
79	0xbc89184a	-0.016735215
80	0x3d993a42	0.07481815
81	0x3daddc5c	0.08489296
82	0x3db6f347	0.0893312
83	0x3d773927	0.06035724
84	0x3cf2ebf9	0.029653536
85	0xbdde6359	-0.10858793
86	0xbc0bb71d	-0.008527544
87	0xbdd7919f	-0.10525822
88	0xbdd8d984	-0.10588363
89	0xbd6eb8bc	-0.058281645
90	0xbbdf475c	-0.0068139266
91	0xbc7c6ac3	-0.015406313
92	0xbd9afac1	-0.07567359
93	0xbceb5fca	-0.0287322
94	0xbcac0e96	-0.021003049
95	0xbd971a68	-0.073780835
96	0xbd65c1d9	-0.05609307
97	0xbd59ee23	-0.05320562
98	0xbcb80b74	-0.022466399
99	0xbd69d569	-0.05708829
100	0xbddf256b	-0.10895809
101	0xbd52d0cf	-0.051468667
102	0xbd72050a	-0.059086837
103	0xbdaf51ee	-0.08560549
104	0x3ba5916a	0.005052735
105	0xbade5133	-0.0016961455
106	0xbb3ccfcd	-0.0028810382
107	0xbd81d03a	-0.06338544
108	0xbd4099f2	-0.047021814
109	0xbc339e61	-0.010963053
110	0xbc89a38d	-0.01680162
111	0xbc949050	-0.01813522
112	0xbdc299da	-0.09502001
113	0xbd668245	-0.05627658
114	0xbd056dde	-0.03257548
115	0x3e0fa500	0.14027786
116	0x3d6ec42b	0.05829255
117	0xbd66bc99	-0.056332204
118	0xbd9c84be	-0.07642506
119	0x3e2c7c67	0.1684433
120	0x3cb16f58	0.021659538
121	0xbd98676f	-0.074416034
122	0xbd3789c9	-0.044809137
123	0x3e0d5fef	0.13806127
124	0xbc1529b3	-0.00910418
125	0xbd5e3f75	-0.054259736
126	0x3bad2ad5	0.005284647
127	0xbd22a6e1	-0.03970993
128	0xbb65ad1b	-0.0035045806
129	0xbcb86879	-0.022510754
130	0xbd67d554	-0.05659993
131	0xbce65b48	-0.028119698
132	0xbd1f9661	-0.038961772
133	0xbd83deac	-0.06438956
134	0xbd935563	-0.071940206
135	0xbdaa767d	-0.08323381
136	0xbd83f8c6	-0.06443934
137	0xbc90005d	-0.017578298
138	0xbd41cfa2	-0.047317155
139	0xbd84adac	-0.06478438
140	0xbd4c801c	-0.049926862
141	0xbd41acdb	-0.04728399
142	0xbd35db2e	-0.04439848
143	0xbd7c4f40	-0.061599016
144	0x3b839cdd	0.0040165023
145	0xbd699c08	-0.05703357
146	0x3c33d6a5	0.010976468
147	0xbc9800ca	-0.018555064
148	0x3ccd1d73	0.025038457
149	0xbdc8a135	-0.09796373
150	0xbd190eb6	-0.037367545
151	0x3d857413	0.0651628
152	0xbc919b36	-0.017774206
153	0xbd0d717c	-0.034532055
154	0x3cc933a0	0.02456075
155	0x3c69d9a1	0.014273078
156	0x3bb8b6e3	0.005637036
157	0x3d38023d	0.04492401
158	0x3cbf913b	0.023384681
159	0xba5ed95c	-0.0008501017
160	0xbce75cb9	-0.028242456
161	0xbbeff5a2	-0.007322983
162	0xbd1d1d0e	-0.038357787
163	0x3ac51705	0.0015036768
164	0xbd006edd	-0.031355727
165	0x3c892553	0.01674143
166	0xbc244800	-0.010026932
167	0xbd69440e	-0.056949668
168	0x3cbffcae	0.023435917
169	0xbc902fbb	-0.017600885
170	0xbce808f7	-0.028324587
171	0xbd224d98	-0.03962478
172	0xbca269db	-0.019825866
173	0xbd0d08ba	-0.03443215
174	0xbd371e34	-0.04470654
175	0xbcd111d1	-0.02552119
176	0xbc9884d5	-0.018618027
177	0xbb19fe28	-0.0023497436
178	0xbd51b286	-0.051195644
179	0x3ba4eda3	0.0050332113
180	0xbd07a1e9	-0.033113394
181	0xbc141463	-0.009038064
182	0x3badf766	0.005309033
183	0xbcc510d4	-0.024055876
184	0xbd0ec46f	-0.034855302
185	0xbd255b8d	-0.040370513
186	0xba50ee0b	-0.00079700415
187	0x3c6fb5e7	0.014630771
188	0x3ca91d1c	0.020643763
189	0x3cac71f2	0.021050427
190	0x3bc99ce1	0.0061527346
191	0x3c086ac6	0.008326238
192	0x3dbbde4c	0.09173259
193	0x3e027d38	0.1274308
194	0x3da86e78	0.08224195
195	0x3dcbc437	0.099495344
196	0x3da17c25	0.07885007
197	0xbcf25d1c	-0.029585414
198	0x3c8946bc	0.016757362
199	0x3c9a844b	0.01886191
200	0x3d1d5c4b	0.038418096
201	0xbc91005d	-0.017700369
202	0x3c1e2e81	0.009654642
203	0x3d94a36a	0.07257731
204	0x3c40ba17	0.011763117
205	0xbb3ed856	-0.0029120645
206	0x3cdceb9c	0.026967816
207	0x3cff676e	0.031177249
208	0x3ddf661d	0.109081484
209	0xbbe64881	-0.007027686
210	0x3dafb90d	0.085802175
211	0x3d166c2e	0.036724262
212	0x3d90ed60	0.07076526
213	0x39b72876	0.00034934626
214	0x3d566339	0.05234072
215	0x3d04d570	0.032430112
216	0x3dd7deac	0.10540518
217	0x3de7733b	0.11301275
218	0x3d9fc0e2	0.07800461
219	0x3d8d7d0c	0.069086164
220	0x3dfdc8ba	0.12391801
221	0x3c8324d6	0.016008776
222	0xbc8f3f6a	-0.017486293
223	0x3d1172ae	0.035509758
224	0x3dd80d09	0.10549361
225	0x3d19dab0	0.037562072
226	0x3c010637	0.007875017
227	0xba93711d	-0.001124892
228	0x3dbed1ae	0.09317337
229	0x3d37dc96	0.0448881
230	0xbd3dafaa	-0.046310104
231	0x3babed32	0.0052467817
232	0x3d9309b0	0.07179582
233	0x3d9707d0	0.07374537
234	0x3c67e128	0.0141528025
235	0x3c414215	0.01179554
236	0x3d95b722	0.073103204
237	0x3ae6b9ca	0.0017602977
238	0x3bb89534	0.005633021
239	0x3df09aaf	0.117482536
240	0xba6ba850	-0.0008989619
241	0x3d8b89d3	0.06813397
242	0x3cb4fbf0	0.02209279
243	0x3b0efaa6	0.0021816879
244	0xbcb25bb4	-0.021772243
245	0xbcd31120	-0.025765002
246	0x3c071c68	0.008246519
247	0x3c4970c3	0.012294951
248	0x3c01da40	0.00792557
249	0xbd6bae43	-0.057539236
250	0x3c9d439f	0.019197283
251	0x3cb35a6f	0.021893708
252	0x3b5ad2df	0.003338985
253	0x3c5b5e0e	0.013389124
254	0x3d67e7b7	0.056617465
255	0x3c9e4cb4	0.019323684

model.2.bias f4 [128]
0	0xbd6ce429	-0.057834778
1	0x3cd3ad88	0.025839582
2	0xbc08740f	-0.008328452
3	0x3cc4eb6d	0.024038041
4	0xbb0f1f91	-0.0021838883
5	0x3d1f1abe	0.038843863
6	0x3b5c659a	0.0033629895
7	0x3b07e9b4	0.0020738663
8	0xbd172eca	-0.036909856
9	0x3d13ebc0	0.0361135
10	0xbb976097	-0.0046196687
11	0x3bce49e6	0.0062954305
12	0xbd39b0c8	-0.045334607
13	0xbce4f725	-0.027949879
14	0xbd87041a	-0.06592579
15	0xbc189aa8	-0.009314217
16	0x3d10fb7d	0.035396088
17	0xbd1458d9	-0.036217544
18	0xbce3a875	-0.027790288
19	0x3c71caac	0.014757793
20	0xbc663b3a	-0.014052207
21	0xbd54e786	-0.05197861
22	0xbcaa8d71	-0.020819398
23	0x3cd0c16b	0.025482854
24	0xbd491e36	-0.049101077
25	0xbcc24346	-0.02371372
26	0x3d8b619c	0.06805727
27	0x3c4304ac	0.011902969
28	0xbd0be6e2	-0.034155734
29	0x3c80061f	0.015627919
30	0xbd41c169	-0.04730359
31	0xbc7c0b00	-0.015383482
32	0x3d3d376e	0.04619544
33	0x3cba4754	0.02273909
34	0x3b4abffc	0.0030937186
35	0x3cd79b73	0.026319241
36	0xbcdafa72	-0.02673075
37	0xbc1213cb	-0.008915852
38	0xbd00abb3	-0.031413745
39	0xbb9565a4	-0.0045592356
40	0xbd715b14	-0.05892475
41	0xbc9fbb9b	-0.019498637
42	0xbb9b428a	-0.0047381567
43	0xbb80d75b	-0.0039319224
44	0x3c1a4724	0.009416375
45	0xbc73926a	-0.014866451
46	0x3c305640	0.010762751
47	0xbcb5b3dc	-0.02218049
48	0x3d91051d	0.070810534
49	0xbc6f551b	-0.014607693
50	0x3c8f9d63	0.017531103
51	0xbb8028bc	-0.003911106
52	0x3c05a737	0.008157543
53	0x3d32f481	0.04369021
54	0xbd720678	-0.0590882
55	0xbd846b6e	-0.06465803
56	0x3b0f9136	0.002190662
57	0xbd1e504d	-0.0386508
58	0xbd056d65	-0.03257503
59	0xbbc08f1c	-0.005876435
60	0x3d65132c	0.055926487
61	0xbcdfcb1e	-0.027318534
62	0xbd530237	-0.051515784
63	0xbd78567f	-0.060629364
64	0xbbcb149f	-0.0061975266
65	0xbd3ce508	-0.04611686
66	0x3d082b2d	0.0332443
67	0xbd06f4b4	-0.03294821
68	0xbc137617	-0.009000323
69	0x3bfb82a4	0.0076754857
70	0x3d57957a	0.052632786
71	0x3c81fde3	0.015868133
72	0xbc7643ec	-0.015030842
73	0xbb6d6fc4	-0.0036229948
74	0xbbe6a7a3	-0.007039027
75	0xbd3f2aa7	-0.046671536
76	0x3cd6075a	0.026126552
77	0xbcaeeffc	-0.021354668
78	0x3bde3819	0.0067815897
79	0xbd1475c7	-0.036245134
80	0xbda6def5	-0.081479944
81	0xbd315960	-0.043298125
82	0x3cf3fd1d	0.02978378
83	0x3b6c604e	0.0036068144
84	0xbcc276d1	-0.023738297
85	0xbd86644f	-0.06562101
86	0xbd42ce54	-0.04756005
87	0x3d28b444	0.04118754
88	0xbd1c54c2	-0.03816677
89	0x3d32339d	0.043506254
90	0x3b9bf624	0.004759567
91	0x3d49f4f3	0.049305867
92	0x3d0c66d2	0.034277745
93	0x3b3bd275	0.0028659378
94	0xbd236e74	-0.03990026
95	0xbd543abf	-0.051813837
96	0x3ca0dd44	0.019636758
97	0xbd4c3475	-0.049854714
98	0x3d395751	0.045249287
99	0xbd4eba82	-0.050470836
100	0xbd34ff2c	-0.044188663
101	0xbcc0e8cc	-0.023548506
102	0x3d58a8b2	0.052895255
103	0xbb83b29e	-0.0040190956
104	0x3ccb9c02	0.024854664
105	0x3d1ad796	0.037803255
106	0xbc25a3f1	-0.010109887
107	0x3cddaee1	0.027060928
108	0xbcd4f19d	-0.025994116
109	0xbd31cc93	-0.043407988
110	0xbd356d21	-0.044293527
111	0x3c869d24	0.016432352
112	0xbd0812e6	-0.033221148
113	0x3d21305b	0.039352756
114	0x3da3d070	0.07998741
115	0xbd2ffc23	-0.042965066
116	0x3d0e4d23	0.034741532
117	0xbd4b4071	-0.049622003
118	0x3b46c2ca	0.0030328506
119	0x3d013aa3	0.03155006
120	0x3c6a34e7	0.014294839
121	0x3ca66e3a	0.020316232
122	0xbd29ec5a	-0.041485168
123	0xbd735780	-0.05940962
124	0x3ccb76b1	0.02483687
125	0xbab22e98	-0.0013594208
126	0x3d1c078c	0.038093135
127	0xbd3ca1ad	-0.046052624

model.5.weight f4 [1, 6272]
0	0xbd1c8121	-0.038209084
1	0x3cad33e9	0.021142917
2	0xbc5b53f8	-0.013386719
3	0xbd145451	-0.036213223
4	0xbca4464c	-0.020053051
5	0xbbc9d66a	-0.0061595934
6	0x3b0c448c	0.0021403162
7	0xbacfeb74	-0.0015863017
8	0xbcd28d81	-0.02570224
9	0x3cdd241d	0.02699476
10	0x3ce861de	0.02836698
11	0xbce130a8	-0.027489021
12	0x3d4ef954	0.050530747
13	0x3b9c59ae	0.004771433
14	0xbc51908d	-0.012790811
15	0x3d1ffe73	0.03906102
16	0x3d47d302	0.048785217
17	0x3d97d6c9	0.07414014
18	0x3cffe14b	0.031235358
19	0x3dae1894	0.08500782
20	0x3c7dac37	0.015482954
21	0x3b721541	0.0036938938
22	0x3cc5f676	0.024165373
23	0x3b97ba4f	0.004630364
24	0x3df89f16	0.12139718
25	0x3dd9bae5	0.106313504
26	0x3de8527b	0.11343857
27	0x3c8d1183	0.017220264
28	0x3c5f5abf	0.013632475
29	0x3cdc5ed4	0.026900686
30	0x3d6674c4	0.0562637
31	0x3d88696b	0.06660732
32	0x3de6c1c1	0.112674244
33	0x3dd774e7	0.10520344
34	0x3d4faf7b	0.05070446
35	0xbb911121	-0.0044270908
36	0x3cb5bba6	0.022184204
37	0x3dcbdc09	0.09954078
38	0x3e287df3	0.16454296
39	0x3dbb5456	0.09146945
40	0x3d792374	0.060824826
41	0x3c3488b8	0.011018924
42	0x3ba51b78	0.005038675
43	0xba937636	-0.001125044
44	0xbd98dcc4	-0.07463983
45	0xbd617b0f	-0.055049
46	0xbd024352	-0.031802483
47	0x3d17ccc5	0.037060518
48	0x3bcdef30	0.006284617
49	0x3c432874	0.0119115
50	0xbd026f53	-0.03184445
51	0xbd8592c2	-0.065221325
52	0xbdbfd9d4	-0.09367719
53	0xbd53dfeb	-0.051727217
54	0xbd87af1d	-0.06625197
55	0x3d2fe8af	0.042946514
56	0xbc928255	-0.017884413
57	0xbd447b59	-0.047969196
58	0xbdb0f73b	-0.086409055
59	0xbd8a9a8c	-0.06767759
60	0xbdb4fe8f	-0.08837616
61	0xbe1520dd	-0.14563318
62	0xbc516607	-0.012780673
63	0x3b1f8e35	0.0024346237
64	0xbdace7ac	-0.084426254
65	0xbd480d23	-0.048840653
66	0xbde98d66	-0.11403923
67	0xbd8ce415	-0.06879441
68	0xbdcb0d0b	-0.09914597
69	0xbbfe5055	-0.007761041
70	0xbcaa2afa	-0.020772446
71	0xbc9cb6da	-0.01913016
72	0xbd959406	-0.07303624
73	0xbdf0ca1e	-0.11757301
74	0xbe1c2991	-0.15250231
75	0xbe3c2fd5	-0.18377621
76	0x3aeed5bb	0.0018221656
77	0xbce4df88	-0.02793862
78	0xbcccb429	-0.02498825
79	0xbd87c746	-0.06629805
80	0xbd86af63	-0.06576421
81	0xbe0eba1d	-0.13938184
82	0xbe1c94e0	-0.15291166
83	0x3ae27b33	0.0017279148
84	0xbca81d17	-0.020521684
85	0xbb956f91	-0.004560419
86	0xbccc2696	-0.024920743
87	0xbc0a123e	-0.008427201
88	0xbdfbbc3e	-0.12291764
89	0xbdd59ab4	-0.10429898
90	0x3c05d699	0.00816884
91	0x3d0933cc	0.033496663
92	0x3db15329	0.0865844
93	0x3da04ef6	0.078275606
94	0x3d2ad14e	0.041703515
95	0xbd72c634	-0.059271052
96	0xbc91f343	-0.017816192
97	0xbc1d9fb0	-0.009620592
98	0x3c902382	0.017595056
99	0x3d033663	0.03203429
100	0xbb8108c0	-0.0039378107
101	0x3d41faa8	0.047358185
102	0x3d85f2d1	0.06540454
103	0x3d301cff	0.042996403
104	0xbb9ae15a	-0.004726571
105	0x3d3d824e	0.046266846
106	0x3ad45ae4	0.0016201404
107	0xbc61d502	-0.013783695
108	0xbe00d903	-0.12582783
109	0x3c95e8c6	0.018299472
110	0x3cdd35e9	0.027003245
111	0x3c8cf696	0.017207425
112	0x3d288403	0.04114152
113	0x3a1b1bea	0.000591694
114	0xbdbb732e	-0.09152828
115	0xbdb1c7c4	-0.086806804
116	0xbc5d0ddc	-0.013492074
117	0xbcf2e961	-0.0296523
118	0x3b6eeb4a	0.0036456161
119	0x3c806bcf	0.015676407
120	0xbd60c17e	-0.05487203
121	0xbdaac264	-0.08337858
122	0xbde945c9	-0.113902636
123	0x3d3b14fa	0.0456743
124	0xbc03a488	-0.008034833
125	0x3d34c50b	0.044133227
126	0x3d0101d9	0.031495903
127	0xbd87751a	-0.06614132
128	0xbdee6557	-0.11640423
129	0xbe0ac48c	-0.13551539
130	0x3d26708a	0.04063467
131	0xbcd8f6e5	-0.026484916
132	0x3c5fb521	0.013654024
133	0x3c46a600	0.012124538
134	0xbd30fc74	-0.043209508
135	0xbe460b8c	-0.19340342
136	0xbd8f1d18	-0.06987971
137	0xbc716a39	-0.014734798
138	0xbcc45d59	-0.023970293
139	0x3c27c5a8	0.010239996
140	0x3cd73443	0.026270038
141	0x3c309d22	0.010779651
142	0xbc8fc3d1	-0.017549427
143	0xbc99ada7	-0.018759562
144	0xbc9d182b	-0.019176563
145	0x3cfeceab	0.031104406
146	0x3d66b0bb	0.056320887
147	0x3d3d97fe	0.04628753
148	0x3cad173d	0.021129245
149	0xbb861003	-0.004091264
150	0x3c1197ce	0.008886291
151	0xbc214635	-0.009843399
152	0x3cf0acae	0.029379215
153	0x3c859f52	0.016311321
154	0x3cd66be5	0.026174495
155	0x3c029cad	0.007971925
156	0xbd021e60	-0.03176725
157	0xbd72a0d2	-0.0592354
158	0xbd386fed	-0.045028616
159	0xbde12804	-0.109939605
160	0x3d650361	0.055911426
161	0xbc64ad81	-0.013957382
162	0xbd6382aa	-0.055544533
163	0xbda125e9	-0.07868559
164	0xbdb12a1c	-0.0865061
165	0xbd56ec3a	-0.052471377
166	0xbd9aa479	-0.07550902
167	0xbc07d303	-0.008290055
168	0xb98d45ec	-0.00026945712
169	0xbd954ca7	-0.07290011
170	0xbd4216bd	-0.047384966
171	0xbcb3b740	-0.021937966
172	0xbdabf011	-0.083953984
173	0xbd090289	-0.033449683
174	0xbd1060bc	-0.035248503
175	0xbc23b742	-0.009992423
176	0xbc8c1b58	-0.017102882
177	0xbdbe2964	-0.092852384
178	0xbdfa65eb	-0.122264706
179	0xbda666be	-0.08125065
180	0xbda7c7f6	-0.081924364
181	0xbb91486b	-0.0044336817
182	0x3b5f6d25	0.0034092155
183	0xbd87c0a9	-0.06628544
184	0xbda43728	-0.08018333
185	0xbda96900	-0.0827198
186	0xbcd14aba	-0.025548328
187	0xbd6dccb1	-0.058056537
188	0xbc1d46b1	-0.009599374
189	0x3c35c4d6	0.011094293
190	0x3c408432	0.011750268
191	0x3d671b58	0.05642256
192	0x3bd9fcf1	0.0066524674
193	0x3d2fdb2c	0.042933628
194	0x3bc64547	0.006050739
195	0x3d690caf	0.05689686
196	0xbb89a372	-0.0042003924
197	0x3cd4eb9b	0.025991252
198	0x3c22433e	0.009903727
199	0xbb7607ba	-0.0037541226
200	0xbc922ac1	-0.017842652
201	0x3b4ba615	0.0031074334
202	0x3d02ea7e	0.03196191
203	0x3ca7a706	0.020465385
204	0xbbae2a3f	-0.0053150947
205	0xbd0059a5	-0.03133549
206	0xbe0c55b2	-0.13704565
207	0xbe02b32c	-0.12763661
208	0xbd5d48c7	-0.054024484
209	0x3c9aa6b7	0.018878324
210	0x3d388582	0.045049198
211	0xbc9b789a	-0.018978406
212	0xbde4fe8a	-0.11181362
213	0xbe1a9457	-0.1509565
214	0xbd9d1b43	-0.076712154
215	0xbd6e47a7	-0.0581738
216	0x3d26e14d	0.040742207
217	0x3c9c99c8	0.019116297
218	0xbccaaebf	-0.024741529
219	0xbd67ea0f	-0.0566197
220	0xbd9366d8	-0.0719735
221	0xbe4bc5ab	-0.19899623
222	0xbe07b1be	-0.13251397
223	0x3d29ee8c	0.04148726
224	0x3d30fc4d	0.043209363
225	0xbc90bc42	-0.017667893
226	0xbdd6b6f5	-0.10484115
227	0xbd239ff6	-0.039947473
228	0xbdc9c2cf	-0.0985161
229	0xbd81b153	-0.0633265
230	0x3d12c470	0.03583187
231	0x3d4143f1	0.047183935
232	0x3bd775b0	0.0065753087
233	0xbc59ccf5	-0.0132934945
234	0xbdf17a35	-0.11790887
235	0xbb861041	-0.004091293
236	0x3c4e7305	0.012600665
237	0x3d5bf43a	0.05369971
238	0x3c1b8ed9	0.009494507
239	0x3bfe9cf0	0.0077701733
240	0xbbbe7d54	-0.00581328
241	0x3c3dfdb8	0.011596136
242	0x3d048b5d	0.03235947
243	0x3d1c9c57	0.038235035
244	0x3cf2b448	0.02962698
245	0x3d43f732	0.047843166
246	0x3cdd7f57	0.02703826
247	0x3cca4ed8	0.024695799
248	0xbb7d803d	-0.0038681172
249	0x3a350ef2	0.0006906829
250	0x3ce452c0	0.02787149
251	0x3cb94e3e	0.022620317
252	0x3cc526cc	0.024066351
253	0xbc9329d4	-0.017964281
254	0xbd2b2b9f	-0.041789647
255	0xbcdf09e2	-0.027226392
