model/discriminator_29.pth (torch, 557154 bytes, 5 tensors)

model.0.weight f4 [64, 1, 4, 4]
00000000: 3576 793e ad9e 19be 7f25 3cbe 3be4 393e
00000010: a65c 9b3e 917b 2abe dcda 70be f6ac 2cbd
00000020: 73ca c23e 109a d83d b0fc 76be c63f 0e3d
00000030: 35a7 0cbd e61a 2d3e 3302 1cbe 8529 333d
00000040: a851 8bbd 082a 263e 6c41 e33d f46e ee3d
00000050: 4a94 033d 23ef 05be a11a 103d 09ab 3abe
00000060: 7735 b73d 5d59 0dbe 81e8 f03d 47bd cbbd
00000070: efbb 36be ce8a 77be cbdd 703e 23bf 8abe
00000080: 4b10 11be 7022 3dbb 212b 553d 569a 0b3e
00000090: b3f1 08be 9b45 82be db7a 4a3e edee 8a3d
000000a0: 46ec a5bd a290 16be 3478 b53d 6e98 673e
000000b0: ac3b 003e 12e7 6cbd 4cb6 04be 802d f9bc
000000c0: 4302 0fbe a456 883e 94c0 94bd 7a20 9d3e
000000d0: 97d0 603e 57a5 2e3e e1d1 d83d ea3d 6b3e
000000e0: 8ed3 8bbe bf7e 2abe 87c8 19be 1771 0fbe
000000f0: adac 9cbd 875f 06be 3f64 26be 4c9c a6bc
00000100: 8605 66be c204 0fbd a83c 24be b84f 7abd
00000110: 810b 2dbe 1597 acbd 3d88 81bd 16c4 2b3e
00000120: 3d4b 19be 4469 36be edff 2c3e c7f0 40be
00000130: 7b5f b83d 0ae3 29be d002 ecbd 1521 103e
00000140: 69aa 6dbe 3f32 96bd 5ac2 2fbe d896 74bd
00000150: 201f 8ebd fd57 1cbe 3b24 a7be 7181 a3be
00000160: c583 5bbe e73e 2d3e 5265 613d 07ac 863d
00000170: 5b75 a73e d29c 9e3e 737d 963e da07 483e
00000180: a262 24be 0bd1 83bd 7acf 59be 4d85 4d3d
00000190: c164 843e ff15 123e 608f 4f3e 7896 45be
000001a0: b923 60be 37c4 80be 51e0 183e 913a fc3d
000001b0: 213e 453e 384c 1abe 7216 f3bd ee61 72bd
000001c0: 9552 f9bd 34e1 5e3e 87dd 37be cc53 e53c
000001d0: d79e 333e 3c79 30be 6727 94bd e45b fb3d
000001e0: 19d4 93bd 1c9a 47be 4898 b6be 6e9b 773e
000001f0: 0827 2a3e 2685 59bd 7e49 d4bd f269 823e
00000200: 697a 37bd d019 c6bd 9951 12be 0eaa 1ebe
00000210: 611a 1f3e 30be d9bc 97ac 023c 3108 68be
00000220: c50b 353e 6beb 4a3e fb59 f23d ced7 213e
00000230: 51a9 f5bd 9485 933e ea7b f3bd 402a 263e
00000240: 1678 9ebb fbd3 d03c 26a9 8e3e f0bf cf3d
00000250: f6b4 76be f613 46be d84d d83d cc9a 7d3e
00000260: 5fa3 13be 6ef4 7cbe c26b 33be 9377 8b3e
00000270: bdaf b4bd ca43 abbe ec93 683e cad4 d33d
00000280: 1d04 cb3d e36e 703e df57 65be b55b ff3d
00000290: 14c5 1e3b 5357 523e d3bc b4bd 7e42 89bc
000002a0: 2aea bdbd 2211 22be 6d7e 113e 351b 3ebe
000002b0: fd90 37be 80bf 073d 1469 a23d 9685 a33c
000002c0: 8994 6f3e 1404 11be 04cf 123d d3da d8bd
000002d0: 4108 6cbe b4d3 9a3c bc73 eebd 053a 99bd
000002e0: 0136 2a3e c6ae 973d f9ae e5bd 878b 39bd
000002f0: 6e90 5bbe 4cc5 0dbd 5d6c 063e eb51 3a3e
00000300: 6d52 18be 5272 4e3d f299 05be 2839 9abc
00000310: 81de acbd afca 6ebe e69f 08be 559a 13b9
00000320: c4af 923e 2504 efbc 9e0d b03d 1789 433e
00000330: 3907 003e 1c1b 3a3e d8a9 933e 26ac bdbe
00000340: b3bf eabb 818f 68be b2ab 04be f9fc c23d
00000350: ddb0 ff3c 8766 853d 2a22 853e fdf7 f93c
00000360: b01e 043e 2fca 233e b958 9d3e 1d02 b5bc
00000370: 42b4 babd 3371 10be f0eb a5be b6bc 423e
00000380: 45c8 4bbe 4d04 db3c b5d7 403e 60c4 783d
00000390: cd84 dfbc 8985 303e dc0c 123f d643 bb3d
000003a0: 96ce 463e 3864 c43e 6c8a 293f a5b4 c53e
000003b0: 10c7 013e dc11 b53e 6e0d bb3e 5461 bfbd
000003c0: e783 053d 0041 2dbd a9d4 80be 2c76 b33d
000003d0: 336c 04be 7fd8 aabd 9a93 fbbd 16f7 eabd
000003e0: 2082 c4bd ed77 10be 6bfb d5bb 2317 883d
000003f0: e713 13bc 7c66 b7bd 4d1c 5a3e 95a9 5b3e
0.24361499 -0.15001936 -0.18373679 0.1815347 0.30344123 -0.166487 -0.23520988 -0.042157136
0.38045081 0.1057626 -0.2411983 0.034728788 -0.03433915 0.16904792 -0.15235214 0.043740768
-0.06802684 0.16226971 0.110964626 0.116422564 0.03212384 -0.13079505 0.035181645 -0.18229307
0.089457445 -0.1380362 0.117630966 -0.09948211 -0.17845128 -0.24174044 0.23522107 -0.2709895
-0.14166372 -0.0028859638 0.052043084 0.13633093 -0.13373451 -0.2544373 0.19773428 0.06783853
-0.08101706 -0.1470361 0.088608176 0.22616741 0.12522763 -0.057837553 -0.12960166 -0.030417204
-0.13965707 0.26628602 -0.07263294 0.3068884 0.2195457 0.1705526 0.10586906 0.22972837
-0.2730984 -0.16649912 -0.15017901 -0.14007984 -0.07650123 -0.13122378 -0.16249178 -0.0203382
-0.22463045 -0.034916647 -0.16038764 -0.061111182 -0.1689892 -0.08427254 -0.063248135 0.1677402
-0.14970107 -0.17813593 0.16894503 -0.1884185 0.090025865 -0.16590515 -0.11523974 0.1407512
-0.23209538 -0.073338024 -0.17163983 -0.05971417 -0.069395304 -0.1526794 -0.3264483 -0.31934693
-0.21436985 0.16918527 0.055028267 0.0657578 0.32706723 0.3097902 0.29392585 0.19534245
-0.1605325 -0.06436356 -0.21270552 0.050175954 0.2585812 0.14266203 0.20269537 -0.1929568
-0.21888627 -0.251497 0.1492932 0.12315858 0.19261982 -0.15068138 -0.118695155 -0.059175424
-0.121739544 0.21765596 -0.179556 0.027994059 0.17541061 -0.17233747 -0.07234078 0.12273386
-0.07218189 -0.19492382 -0.35663056 0.24180385 0.16616452 -0.053105496 -0.1036558 0.25471455
-0.044794474 -0.09672892 -0.1428894 -0.15494558 0.15537407 -0.026579946 0.007975719 -0.22659375
0.17680271 0.19816367 0.11833569 0.15804979 -0.11995185 0.2881285 -0.11888869 0.16227055
-0.0048360927 0.025491705 0.27863425 0.10144031 -0.24092469 -0.19343552 0.105617225 0.24766082
-0.1441779 -0.24702618 -0.17521575 0.27239665 -0.08822582 -0.33450156 0.22712678 0.10343321
0.09912894 0.234798 -0.22396801 0.124686636 0.0024226354 0.20541124 -0.08825078 -0.016755339
-0.09273179 -0.15826848 0.14208384 -0.18565066 -0.17926402 0.033141613 0.07930198 0.01996116
0.23396505 -0.14161712 0.035841957 -0.105886124 -0.23050024 0.018899776 -0.11643168 -0.074817695
0.16622163 0.07406382 -0.11215014 -0.04529908 -0.21441814 -0.034611985 0.13127275 0.18195312
-0.14875193 0.050401993 -0.13047007 -0.018826082 -0.08440877 -0.23319505 -0.13342246 -0.00014076506
0.28649724 -0.029176781 0.08596347 0.19095264 0.12502755 0.18174404 0.28840518 -0.370454
-0.0071639656 -0.22710992 -0.12956122 0.09520907 0.031212265 0.06513696 0.26002628 0.030513758
0.12902331 0.15995096 0.30731753 -0.022095734 -0.09116413 -0.14105682 -0.3240657 0.190173
-0.19900616 0.02673545 0.18832286 0.060734153 -0.027285004 0.1723844 0.5705087 0.09143798
0.19414744 0.3835771 0.6622684 0.38614383 0.12673593 0.35365188 0.36533684 -0.09344736
0.032596495 -0.042298317 -0.25162247 0.08762774 -0.129319 -0.083420746 -0.12284012 -0.11472909
-0.09595132 -0.14108248 -0.0065302155 0.06645038 -0.008976913 -0.08955094 0.21299858 0.21451409

model.0.bias f4 [64]
00000000: c53c 89be f7c1 dd3d 80dd d23d 9c03 0bbd
00000010: 15b1 68be 1e27 6ebe 90d1 d0bd 5014 2dbe
00000020: 9726 5f3e 074d 1abd 7751 a83d f52f 6b3e
00000030: 9338 10be 420a 33be c7a4 d53c 9dcf d3bd
00000040: 650e 65be f546 96bd e0f7 aa3d 3b18 223e
00000050: 4843 b43d 2453 93bd 5f3b 023e 1902 44be
00000060: a5f8 8d3d 94a9 c6bd 0c92 6d3c 13b0 72be
00000070: 52ef ae3c 37f0 aebd b580 643e bc65 b9bd
00000080: 7424 5ebe aa71 3a3e da96 353e 3515 2ebd
00000090: 04aa 3b3e 4edb 8cbe ad57 fd3d 99d2 933c
000000a0: bdf9 6fbe 40cf 3fbe dffe 65bd 2420 3cbe
000000b0: 1d8b 98be 7044 2639 9e85 603e 9ee9 3cbd
000000c0: a99c a1bc 5fc2 aa3d f0b3 27be 7273 c5bd
000000d0: 10dd 92be e4de 3bbe 934c d3bc 730f 6cbd
000000e0: 9a52 e83d e15a 92be 9f8f 06be daa5 343b
000000f0: c1b6 f2bd d433 f33d 6eaf 4e3e 9fa7 e7bd
-0.26804176 0.108280115 0.10296154 -0.03393899 -0.22723801 -0.2325711 -0.10196221 -0.1690228
0.21792065 -0.037671115 0.08218663 0.22967513 -0.14084081 -0.17484382 0.026079549 -0.103423335
-0.22368772 -0.07337753 0.0834806 0.15829556 0.088018954 -0.07193592 0.12717961 -0.19141425
0.06932191 -0.09700313 0.014500152 -0.2369998 0.021354351 -0.08541911 0.22314723 -0.090526074
-0.21693593 0.18207422 0.17733327 -0.042500693 0.18326575 -0.27511066 0.123702385 0.018044757
-0.23435111 -0.18731403 -0.056151267 -0.18371636 -0.29793635 0.00015856489 0.21925971 -0.046121232
-0.019728022 0.083378546 -0.16377234 -0.0964116 -0.28684282 -0.18346745 -0.02579335 -0.05763192
0.1134388 -0.2858496 -0.13140725 0.0027564676 -0.11851264 0.1187512 0.20184109 -0.11311268

model.2.weight f4 [128, 64, 4, 4]
00000000: f3be 3f3e 94d2 af3d 2ef9 2d3c a094 143c
00000010: 827a 4c3e 097a 813d 14d7 803d 2fc3 1c3e
00000020: 6f0e 553e 20f8 3fbd 64ff c63d f41e 3a3e
00000030: 8c33 003e 921d 0c3d b85b 66bd 544c 6a3d
00000040: 488c 84bd 8337 8ebc 5ccc 27bd 443b 91bd
00000050: 892d 98bd 6799 24bd 1eac 55bd 9fb0 68bc
00000060: 0961 99bc 551e 7cbd 8739 2abc f503 67bd
00000070: 2244 49bc f946 4ebc 654b 5fbd d567 9ebc
00000080: f8ac 43bd 20da eebc ad39 873c 2826 06bd
00000090: 208b 60bd c615 79bd 9bd8 8bbc 811f e0bb
000000a0: a85f bf3c a3bc 47bd c573 c9bc 80e9 81bb
000000b0: 76b1 8abc 6991 d4b9 cd27 723c e00a 273d
000000c0: d45f 213d 3200 44bd 4aa5 62bd cf67 aebc
000000d0: db7b 343c 0798 84bc a295 54bd 5ed6 a9bd
000000e0: bd08 cc3c 6b58 f7bc 2f92 f1bc d39b 723d
000000f0: 2e18 36bd e076 5ebd 1b44 09bd 0391 8ebd
00000100: 53d3 563c 4842 d33c c79a b9bc 6afc 8a3c
00000110: ae4a 153d 155d 32bc 4e42 1c3c 2d3d f73c
00000120: db76 22bc a702 f13c 9b27 693d 1581 f03c
00000130: 7408 4a3d f520 733d c544 3d3d 845a 64bc
00000140: de81 a13d 70fa c03d 5f20 c93d 5dcf 103d
00000150: 9c83 1c3d 034c f1bd 3a21 84bc da13 7dbd
00000160: d2c3 6bbd 0833 80bd 7691 7dbc 57d4 233c
00000170: ed4a 8bbd 0406 3c3c ed08 e9ba aafd 52bd
00000180: 50f7 b5bd 5ec1 6fbd 10af 33bd 57fd 9fbd
00000190: 6831 04be 2a50 50bd b61e 46bd 91c2 c9bd
000001a0: 38f7 d7bb 3a13 a03c 285f 22bc 8ce7 9bbd
000001b0: e155 64bd 8ded 75bc 9b34 28bd ae6d c1bc
000001c0: 7f1e f5bd 3148 9dbd b6af 4bba 4e10 f23d
000001d0: 4ce4 293d 5cb4 c5bd a79f 91bd eb7d 3a3e
000001e0: c0b8 29bb d22f a9bd 9202 eebc d011 483e
000001f0: 2ce4 6cbd 21f3 8cbd c06a c8bc e383 75bd
00000200: dc74 323b 4166 d2bc 971e 8dbd b539 19bd
00000210: 951e 23bd c26a 7bbd b5a0 9bbd 9806 bdbd
00000220: 3918 8ebd af48 9ebc 0896 2abd 369f 25bd
00000230: 3c6b 04bd 1397 03bd 6be3 7fbc e0fe 63bd
00000240: d690 6f3a 6fb7 72bd 72ca 2f3d ef08 b3bc
00000250: 457d 6b3c 9636 fcbd fce0 c3ba d995 9a3d
00000260: be52 15bc 2962 b3bc a610 ef3c 7bee fa3c
00000270: ae46 4d3a 073a 4d3d f07a bf3c ee18 a43c
00000280: acb6 c3bc 4f4a 513a 4cb7 2cbd 470f c2bb
00000290: 7158 b4bc 4977 033d 1b96 e1bc caab 86bd
000002a0: cf14 8c3c 3a07 7cbc 2452 fabc e4b0 23bd
000002b0: ae99 44bc 31f8 e3bc 1c31 31bd b43e 0ebd
000002c0: 5184 b6bc 06b0 bebb bd79 62bd 55c7 ad39
000002d0: 3815 c9bc 2a1d d9ba e02a 093a f23d c3bc
000002e0: 53af 11bd 995a 35bd 72a8 1cbb d7d1 033c
000002f0: 9241 d13c d6b4 b93c d4ac 283c 4687 1e3b
00000300: b298 a53d d185 fe3d c79e c33d a654 af3d
00000310: 593d b23d c41d fabc 1529 2f3c c674 9f3c
00000320: 16a3 763d f872 a8bb cb28 b2bc c408 583d
00000330: 72db 9b3c b620 1e3d a2f4 a43d 5e9f 9d3d
00000340: c5f7 f13d f608 25bd 3a98 823d bf1c c9ba
00000350: 7978 b83d e33b 583b 0056 6a3d 89fa 0bbd
00000360: ab26 c53d c2aa 233e 5c8b 043e 1039 553d
00000370: 1e99 113e 73d5 0e3d 537d 29bc 8a2d 753d
00000380: f0cd ec3d 5ace 143d afdc bb3b d5e2 583c
00000390: ba8e c83d 5805 4a3d 3525 4ebd 6b96 81bc
000003a0: a1be 8e3d ce25 8a3d 8c06 97bb 560b 593c
000003b0: 1531 a23d 35c6 bb3b aceb b33c 3d9b 203e
000003c0: 8e6e 36bc 6af2 923d 3fc5 e33c 7ec3 efbb
000003d0: c874 01bd f5ad efbc c7c2 443c d65e 9a3c
000003e0: df76 ac3b 4ea5 30bd 779b bb3c cd3c dd3c
000003f0: 934b 683c fec2 6e3c 1f69 733d f3d0 803c
0.18725185 0.085850865 0.010618491 0.009068638 0.19968608 0.063221045 0.06291023 0.15308832
0.20806287 -0.04686749 0.09716681 0.1817587 0.12519664 0.034207888 -0.056239814 0.0572017
-0.06472069 -0.017360454 -0.040966377 -0.07091382 -0.0743056 -0.04018536 -0.052166097 -0.014202266
-0.018723028 -0.061552364 -0.010389692 -0.056400258 -0.012284311 -0.012590163 -0.05451526 -0.01933662
-0.047772378 -0.029156744 0.016506994 -0.032751232 -0.05482018 -0.06081178 -0.017071059 -0.006839693
0.023361042 -0.048763882 -0.024591336 -0.003964603 -0.016930323 -0.0004054413 0.014779997 0.040781856
0.03939803 -0.04785175 -0.055333413 -0.021289734 0.011015858 -0.016185774 -0.051900513 -0.082928404
0.02490651 -0.030193528 -0.029488651 0.059230637 -0.044456653 -0.054312587 -0.033512216 -0.069612525
0.013111907 0.025788441 -0.022656811 0.016966064 0.036448173 -0.01088645 0.009537293 0.030180538
-0.009916033 0.02942021 0.056922536 0.029358426 0.049324468 0.059357602 0.04620816 -0.013937596
0.07886098 0.09422767 0.098206274 0.035354007 0.03821145 -0.11782076 -0.016129125 -0.06178651
-0.057559796 -0.062597334 -0.015476575 0.009999356 -0.068014 0.011476044 -0.0017779149 -0.051511444
-0.08885062 -0.05853402 -0.043868124 -0.078119926 -0.12909472 -0.0508577 -0.048369132 -0.09851564
-0.00659075 0.019540418 -0.009910382 -0.076125234 -0.055745963 -0.01501025 -0.041065793 -0.02361187
-0.11968707 -0.07679785 -0.00077700184 0.11819516 0.041477486 -0.096535414 -0.071105294 0.18212096
-0.0025897473 -0.08261074 -0.02905396 0.19538045 -0.05783479 -0.06882311 -0.024464965 -0.05994023
0.0027230298 -0.025683524 -0.068906 -0.03740855 -0.039824087 -0.06138111 -0.07599012 -0.09229773
-0.06938214 -0.019321768 -0.041646987 -0.04043504 -0.03232883 -0.032126497 -0.0156181855 -0.05566299
0.00091387087 -0.059256967 0.042917676 -0.021854846 0.014373128 -0.12315099 -0.001494437 0.075481124
-0.009113966 -0.021897392 0.029182743 0.030631294 0.00078306615 0.050104167 0.02337405 0.020031419
-0.023890816 0.000798379 -0.042166993 -0.0059222314 -0.022014828 0.03209618 -0.027537396 -0.06575735
0.017099766 -0.015382582 -0.030556746 -0.039963618 -0.011999531 -0.027828308 -0.043259725 -0.034727767
-0.02227989 -0.0058193235 -0.05529188 0.00033145645 -0.02454625 -0.0016564478 0.0005232524 -0.023833249
-0.035567593 -0.044275854 -0.0023904112 0.008045635 0.025543962 0.022669237 0.010295112 0.0024189516
0.08085765 0.12427867 0.09551769 0.08561067 0.087031074 -0.030531771 0.010690947 0.019464862
0.060214125 -0.0051406585 -0.021747967 0.052742735 0.019025538 0.038605414 0.080544725 0.076964125
0.118148364 -0.04029175 0.06376691 -0.001534365 0.09007353 0.003299468 0.057210922 -0.034174476
0.09626516 0.15983108 0.12943786 0.052056372 0.14218566 0.03487153 -0.010344821 0.059857883
0.11562717 0.036329605 0.0057330946 0.013237675 0.09792848 0.049321502 -0.050328452 -0.015818795
0.06969953 0.06745492 -0.0046089347 0.013247332 0.07919518 0.005730415 0.021962963 0.15684219
-0.011134757 0.07175143 0.027804015 -0.0073170057 -0.031605512 -0.029257754 0.012009329 0.01884405
0.005263194 -0.043126397 0.02290128 0.027006531 0.014178175 0.014572857 0.059426423 0.015724635

model.2.bias f4 [128]
00000000: b787 78bd 957f d93c 4a98 e938 a375 ca3c
00000010: 7b84 633b af34 1c3d 7ab0 3a3b a0e2 c6ba
00000020: f84a 1bbd d7fd 203d 7f7e 9dbb 5974 c93b
00000030: c68e 46bd 77d9 a1bc 2b84 8ebd c96d 24bc
00000040: 0b6b 193d 202d 14bd 936e d1bc d8ac 953c
00000050: 210c 1fbc adf3 51bd b623 ccbc 8057 eb3c
00000060: ef4d 57bd db66 dabc 632b 9d3d 7ab4 653c
00000070: a549 18bd 14d3 963c 3414 23bd 7a36 7bbc
00000080: 0ec3 603d 3901 d13c 7820 42bb cbee d73c
00000090: 1c3c edbc 8656 83bc 4a49 24bd 89ed debb
000000a0: aa61 a8bd f363 94bc 9880 7abb 48a7 95bb
000000b0: a956 823b aa0d a2bc 1d6f 003c 5612 cbbc
000000c0: 5565 a03d 0474 7cbc dcc8 a23c 7866 9bbb
000000d0: 9997 3d3c 025b 323d 7a8c 95bd 9c79 87bd
000000e0: fada 193c c1b4 52bd 86d3 cdbc 44d9 dbb9
000000f0: 056f 703d 9271 b4bc 4f42 62bd 12b9 80bd
00000100: 328d f1ba 87c6 48bd 5ae4 0c3d 56b8 dabc
00000110: 10a4 21bc 4fdf 883b 0e51 663d a4b7 873c
00000120: fd74 4dbc c551 dbba 2083 2bbc 29ea 3cbd
00000130: 5acb 0b3d 2665 bfbc c4a4 113c 5ec4 20bd
00000140: d964 adbd 7d0f 2fbd d6e6 143d 0ca2 183c
00000150: 3d7e b9bc fa54 85bd 01f8 20bd 23fc 3f3d
00000160: 1524 2ebd 2c37 6f3d 95f2 033c a1da 5e3d
00000170: 9802 0c3d b4a8 e33b f383 3dbd c2c8 71bd
00000180: 44a0 c03c ee4e 53bd b13b 243d cfbf 5bbd
00000190: 7d81 45bd ed04 e5bc e33e 573d 1cac 8ebb
000001a0: fff8 da3c 0d2b 0e3d ec30 67bc 244f ea3c
000001b0: cdfb ebbc 75b0 38bd a6ef 52bd 8a8f 863c
000001c0: a5c1 23bd 0dcb 273d d0bf bf3d b98a 58bd
000001d0: 3e62 1b3d b917 5dbd 55ec 9e3a 81a5 e73c
000001e0: be64 423c 9bb8 9e3c da74 34bd 7bd6 69bd
000001f0: fccc 053d 9f14 563c ecff 233d e258 38bd
-0.060676303 0.026550094 0.00011138672 0.024714297 0.0034716416 0.03813618 0.0028486536 -0.0015173741
-0.037913293 0.03930458 -0.0048063393 0.006147903 -0.048476003 -0.019757016 -0.06958803 -0.01003594
0.0374556 -0.036175847 -0.025565421 0.018270895 -0.009707482 -0.051257778 -0.024919372 0.028728247
-0.052564558 -0.026660373 0.07674291 0.01402008 -0.037179608 0.018411197 -0.03981419 -0.015332812
0.05487352 0.025513278 -0.0029621404 0.026358983 -0.028959326 -0.016032469 -0.040108956 -0.0068032187
-0.08221753 -0.018114066 -0.003822362 -0.0045670606 0.003977616 -0.019781906 0.0078389915 -0.024789017
0.078318276 -0.01540852 0.019871168 -0.00474244 0.011571788 0.043543823 -0.073021844 -0.06614992
0.009390587 -0.05144191 -0.025125276 -0.0004193281 0.058699626 -0.02202681 -0.055239018 -0.06285299
-0.001842892 -0.049017455 0.03439746 -0.026699226 -0.009865776 0.004177011 0.056229644 0.016567059
-0.012540099 -0.0016732743 -0.010468274 -0.04612175 0.034129478 -0.023363661 0.008889381 -0.03924977
-0.08466501 -0.04273938 0.036352955 0.009315979 -0.022643203 -0.065103486 -0.039299015 0.046871316
-0.04251488 0.058402225 0.0080534415 0.05440772 0.03418216 0.006947601 -0.046268415 -0.05902935
0.02351392 -0.051588945 0.04009599 -0.05364972 -0.048219193 -0.02795645 0.052550208 -0.004354013
0.026730059 0.034709025 -0.014110785 0.02860219 -0.028806591 -0.045090158 -0.051498078 0.016425867
-0.039979596 0.04096513 0.09362757 -0.05286667 0.037935488 -0.0539777 0.0012124876 0.02827716
0.011864839 0.019375136 -0.04405675 -0.05708931 0.03266619 0.01306644 0.040038988 -0.04500664

model.5.weight f4 [1, 6272]
00000000: 81c5 27bd 8144 843c ad57 55bc a4cd 50bd
00000010: 2986 d0bc f7e6 91bb 1592 fc3a 2935 5bbc
00000020: 8f3b dabc 02c4 023d c889 063d 4284 603b
00000030: 4ed8 6c3d 04dd fb3b e34a 1a3c 46b6 0f3d
00000040: 428a 7b3d 5ed7 b13d 33ce 9d3c 2708 b53d
00000050: bc8b 333c 47fc 823c 5fda 793c e0b3 33bd
00000060: 8ae1 113e 3fef cd3d 18c1 ce3d 351d 4c3c
00000070: 324e 573b 493b 833c d9cc 0c3d d538 b33d
00000080: 6c90 ba3d 7037 f63d 527a 3e3d d3b1 c4ba
00000090: bff5 953c 66c4 bf3d 530f 4c3e baa2 a73d
000000a0: 670a 233d fa8c 053c 2003 f0ba f1b5 c7ba
000000b0: 4da9 9dbd d14a 91bd f90d 92bc 0ced 043d
000000c0: 4da6 b43b 4546 b13b e594 5cbd bda7 9cbd
000000d0: 7e3f c3bd ffa2 b7bd 2808 f8bd b566 343d
000000e0: 5bcf 9fbc 9add 64bd ca3d a5bd 50fd 95bd
000000f0: 4bce c3bd 9f58 25be 4335 3dbc 66d4 7c3b
00000100: 0b00 d8bd 5562 10bd b5c7 00be 5cea a4bd
00000110: b248 e0bd f7eb 1abc 5bd7 adbc e8f7 cabc
00000120: 7185 8abd 0825 eabd 7a48 28be cf1f 4fbe
00000130: e58e 1fbc cd73 bfbc 247c eebc d04a 86bd
00000140: 7185 8dbd 8dc1 12be dfc9 31be 061f 23bb
00000150: 7c5a 38bc 53b3 dbbb a115 38bd 40e9 633c
00000160: 6170 f2bd 20f2 d9bd 452a 05bb 80f9 fc3c
00000170: 95b7 d73d 640c c13d 1c44 2d3d d319 f8bc
00000180: e1f4 403c 4d2b 57bb 0435 b33c da8c 0c3d
00000190: b095 d8ba d113 573d 77b2 923d dc8f 453d
000001a0: 64cb 86bb 505b 1e3d 9beb 2fbd 20f2 c1bc
000001b0: 1eae 14be 2532 d63c 2b3b 553c 8ee9 ac3c
000001c0: 03f4 643d 6db0 383c dbc3 c2bd 3eb3 c1bd
000001d0: a670 8abb 0268 dabc 1452 213b fd73 6c3c
000001e0: c080 81bd d017 93bd 4f4b ebbd 40c1 733d
000001f0: b37d 47bc f61a 563d 23de 2a3d fbdf b8bd
00000200: 6f86 f6bd ebf2 02be b9c9 fc3c 37ae e6bc
00000210: 032b 633c cf16 4f3c a230 51bd 436a 35be
00000220: 023d 56bd 7c99 1abc 9b0e 87bc 09d2 163c
00000230: 002e d63c 75ab 633a d25e 7bbc f628 81bc
00000240: bef5 98bc 242d 193d f8c7 783d f63d 6e3c
00000250: 5301 613d 7a17 c4bc 0576 2ebc f52c 3cbd
00000260: 5a41 353c 1f1b a33c 4889 ee3c 86bd f33b
00000270: 072e dcbc 6e28 a9bd 4c87 69bd 4cc2 0bbe
00000280: 1b1a 653d 4668 aebc f351 5abd 583a b9bd
00000290: 7467 a0bd fa42 c7bc 4e3d a5bd e5a0 74bc
000002a0: c5de 25bc 400f 93bd 5cf9 7cbd 709d 6ebb
000002b0: e972 d4bd 5950 46bd fd06 96bd a4d8 a5bc
000002c0: f2cb 34bd 4375 a2bd 7410 febd 7759 c6bd
000002d0: 221a 75bd e014 bebb 3a39 cd3b cc6a 4dbd
000002e0: d934 92bd 693b a8bd 0942 f1bc a874 a2bd
000002f0: 7234 bdbc 36f9 543c db4f 2a3c de7d 7e3d
00000300: bf52 0d3d 73bc 1d3d e878 fc3c 48f8 673d
00000310: 0cd5 383a bf64 f83c b466 213c 9f0e 3fbc
00000320: a728 cdbc 6dd4 13bb bef5 f23c 074d b93c
00000330: c7f7 f3bb da51 1dbd 2f50 f8bd 0e6e 08be
00000340: ce82 47bd 002f 92bb 11be 173d 5b79 adbc
00000350: 829f eabd 786b 11be e652 78bd a30b 49bd
00000360: 6731 a83d 1aeb cc3c 8199 f6bc 3311 a9bd
00000370: 1356 4dbd b91d 5fbe 28af 2dbe 18da 7e3c
00000380: d86c 1e3d 0671 04bc 7183 e1bd 366b 10bd
00000390: cb68 debd e15c 94bd a011 653d 65c7 533d
000003a0: 21d9 90bc a266 04bb 15b9 c8bd f5e9 b63c
000003b0: 8cab 3dbb c4f0 3b3d a9c3 2e3c 7a32 0d3c
000003c0: be2d 94bb 5aa5 b83c 4575 183d 10e2 2f3d
000003d0: cddb fe3c 6355 503d 221c e63c c6bf aa3c
000003e0: 268e 0abb fcc4 cf3b 8662 f23c f529 bf3c
000003f0: 6355 a53c 47ff 00bd b230 2cbd 0ae4 54bc
-0.04095984 0.016145946 -0.013021392 -0.050977364 -0.025454598 -0.004452582 0.001926961 -0.013379374
-0.026639728 0.03192521 0.032846242 0.003425852 0.05782347 0.007686259 0.009417268 0.03508594
0.06141115 0.08683656 0.019263363 0.088394456 0.010958608 0.015989436 0.015249818 -0.043872714
0.14246193 0.10055398 0.100954235 0.012458135 0.0032853005 0.01601948 0.034375045 0.08751074
0.091095775 0.120222926 0.046503372 -0.0015006609 0.018305657 0.09363632 0.1992772 0.081853345
0.039804842 0.008151287 -0.0018311478 -0.0015236718 -0.07698307 -0.07094348 -0.017828928 0.032452628
0.0055129887 0.005409988 -0.053852934 -0.07649181 -0.095335945 -0.08966636 -0.12110931 0.04404326
-0.019508054 -0.0558754 -0.08068426 -0.07323706 -0.09560832 -0.16147088 -0.011548343 0.0038578748
-0.10546883 -0.035250027 -0.12576182 -0.08052513 -0.109513655 -0.009455672 -0.021220854 -0.024776414
-0.06763733 -0.114328444 -0.16433898 -0.20226978 -0.009738659 -0.023370648 -0.02911193 -0.06557238
-0.069102176 -0.14331646 -0.17362164 -0.0024890318 -0.011252042 -0.0067047267 -0.044942502 0.013910592
-0.11837841 -0.10641885 -0.0020319384 0.03088069 0.10533062 0.094261914 0.042301282 -0.030285751
0.011777134 -0.0032832206 0.021875866 0.034314014 -0.0016524103 0.052509133 0.07162946 0.048232898
-0.0041136015 0.0386613 -0.0429493 -0.023675025 -0.14519545 0.026146958 0.013014595 0.021107461
0.05589677 0.011272532 -0.09510013 -0.09458016 -0.0042248545 -0.026660923 0.0024615573 0.014431951
-0.06323385 -0.07182276 -0.11488973 0.05951047 -0.012175965 0.052271806 0.041715752 -0.09027096
-0.1203736 -0.12787978 0.030857908 -0.028159244 0.013865235 0.012639715 -0.05107177 -0.17716317
-0.052304275 -0.009436008 -0.016486457 0.00920535 0.026144981 0.0008684912 -0.015342431 -0.015766602
-0.018671867 0.037396565 0.06073758 0.01454114 0.054932903 -0.023936976 -0.010648255 -0.045941312
0.011062944 0.019910393 0.029118195 0.0074383644 -0.026877416 -0.082596645 -0.057013795 -0.13648337
0.0559331 -0.021289956 -0.05330081 -0.09044331 -0.07832232 -0.02432393 -0.080683336 -0.014930938
-0.010123913 -0.07180643 -0.061761245 -0.0036409758 -0.1037348 -0.04841647 -0.07325552 -0.020244904
-0.04413981 -0.07932522 -0.12405482 -0.09685033 -0.059839375 -0.0058008283 0.0062629255 -0.050150678
-0.07138986 -0.082144566 -0.029450433 -0.07932407 -0.023096297 0.01299887 0.010395016 0.062131755
0.03450274 0.038509797 0.030819371 0.056633264 0.00070507894 0.030321477 0.0098511465 -0.011661201
-0.025043799 -0.0022557036 0.029658195 0.022619737 -0.007445309 -0.038408138 -0.12124669 -0.13323233
-0.04870873 -0.0044611692 0.037046496 -0.02117603 -0.11456205 -0.14201152 -0.060625933 -0.049083363
0.08212548 0.025014449 -0.030102493 -0.082552336 -0.050130915 -0.21788682 -0.16961348 0.015554927
0.03867802 -0.0080835875 -0.110113986 -0.035258494 -0.108598314 -0.07244278 0.05592501 0.05170383
-0.01768166 -0.0020202775 -0.098009266 0.022328356 -0.0028941361 0.04588391 0.010666766 0.008617992
-0.0045220545 0.022539783 0.037221212 0.0429402 0.031110669 0.05086268 0.028089587 0.020843398
-0.0021141856 0.006340621 0.029587995 0.023335436 0.020182317 -0.03149345 -0.042038627 -0.012993822
